{"format": "graph-model", "generatedBy": "2.19.0", "convertedBy": "TensorFlow.js Converter v4.22.0", "signature": {"inputs": {"image": {"name": "image:0", "dtype": "DT_FLOAT", "tensorShape": {"dim": [{"size": "-1"}, {"size": "128"}, {"size": "512"}, {"size": "3"}]}}, "face_origin_3d:0": {"name": "face_origin_3d:0", "dtype": "DT_FLOAT", "tensorShape": {"dim": [{"size": "-1"}, {"size": "3"}]}}, "head_vector:0": {"name": "head_vector:0", "dtype": "DT_FLOAT", "tensorShape": {"dim": [{"size": "-1"}, {"size": "3"}]}}}, "outputs": {"output_0": {"name": "Identity:0", "dtype": "DT_FLOAT", "tensorShape": {"dim": [{"size": "-1"}, {"size": "2"}]}}}}, "modelTopology": {"node": [{"name": "StatefulPartitionedCall/full_gaze_inference_model_1/cnn_encoder_1/depthwise_conv2d_15_1/depthwise/ReadVariableOp", "op": "Const", "attr": {"value": {"tensor": {"dtype": "DT_FLOAT", "tensorShape": {"dim": [{"size": "5"}, {"size": "5"}, {"size": "96"}, {"size": "1"}]}}}, "dtype": {"type": "DT_FLOAT"}}}, {"name": "StatefulPartitionedCall/full_gaze_inference_model_1/cnn_encoder_1/depthwise_conv2d_15_1/Squeeze", "op": "Const", "attr": {"value": {"tensor": {"dtype": "DT_FLOAT", "tensorShape": {"dim": [{"size": "96"}]}}}, "dtype": {"type": "DT_FLOAT"}}}, {"name": "StatefulPartitionedCall/full_gaze_inference_model_1/cnn_encoder_1/conv2d_19_1/convolution/ReadVariableOp", "op": "Const", "attr": {"value": {"tensor": {"dtype": "DT_FLOAT", "tensorShape": {"dim": [{"size": "1"}, {"size": "1"}, {"size": "96"}, {"size": "24"}]}}}, "dtype": {"type": "DT_FLOAT"}}}, {"name": "StatefulPartitionedCall/full_gaze_inference_model_1/cnn_encoder_1/conv2d_19_1/Squeeze", "op": "Const", "attr": {"value": {"tensor": {"dtype": "DT_FLOAT", "tensorShape": {"dim": [{"size": "24"}]}}}, "dtype": {"type": "DT_FLOAT"}}}, {"name": "StatefulPartitionedCall/full_gaze_inference_model_1/cnn_encoder_1/depthwise_conv2d_16_1/depthwise/ReadVariableOp", "op": "Const", "attr": {"value": {"tensor": {"dtype": "DT_FLOAT", "tensorShape": {"dim": [{"size": "5"}, {"size": "5"}, {"size": "24"}, {"size": "1"}]}}}, "dtype": {"type": "DT_FLOAT"}}}, {"name": "StatefulPartitionedCall/full_gaze_inference_model_1/cnn_encoder_1/depthwise_conv2d_16_1/Squeeze", "op": "Const", "attr": {"value": {"tensor": {"dtype": "DT_FLOAT", "tensorShape": {"dim": [{"size": "24"}]}}}, "dtype": {"type": "DT_FLOAT"}}}, {"name": "StatefulPartitionedCall/full_gaze_inference_model_1/cnn_encoder_1/conv2d_20_1/convolution/ReadVariableOp", "op": "Const", "attr": {"value": {"tensor": {"dtype": "DT_FLOAT", "tensorShape": {"dim": [{"size": "1"}, {"size": "1"}, {"size": "24"}, {"size": "96"}]}}}, "dtype": {"type": "DT_FLOAT"}}}, {"name": "StatefulPartitionedCall/full_gaze_inference_model_1/cnn_encoder_1/conv2d_20_1/Squeeze", "op": "Const", "attr": {"value": {"tensor": {"dtype": "DT_FLOAT", "tensorShape": {"dim": [{"size": "96"}]}}}, "dtype": {"type": "DT_FLOAT"}}}, {"name": "StatefulPartitionedCall/full_gaze_inference_model_1/cnn_encoder_1/depthwise_conv2d_13_1/depthwise/ReadVariableOp", "op": "Const", "attr": {"value": {"tensor": {"dtype": "DT_FLOAT", "tensorShape": {"dim": [{"size": "5"}, {"size": "5"}, {"size": "96"}, {"size": "1"}]}}}, "dtype": {"type": "DT_FLOAT"}}}, {"name": "StatefulPartitionedCall/full_gaze_inference_model_1/cnn_encoder_1/depthwise_conv2d_13_1/Squeeze", "op": "Const", "attr": {"value": {"tensor": {"dtype": "DT_FLOAT", "tensorShape": {"dim": [{"size": "96"}]}}}, "dtype": {"type": "DT_FLOAT"}}}, {"name": "StatefulPartitionedCall/full_gaze_inference_model_1/cnn_encoder_1/conv2d_17_1/convolution/ReadVariableOp", "op": "Const", "attr": {"value": {"tensor": {"dtype": "DT_FLOAT", "tensorShape": {"dim": [{"size": "1"}, {"size": "1"}, {"size": "96"}, {"size": "24"}]}}}, "dtype": {"type": "DT_FLOAT"}}}, {"name": "StatefulPartitionedCall/full_gaze_inference_model_1/cnn_encoder_1/conv2d_17_1/Squeeze", "op": "Const", "attr": {"value": {"tensor": {"dtype": "DT_FLOAT", "tensorShape": {"dim": [{"size": "24"}]}}}, "dtype": {"type": "DT_FLOAT"}}}, {"name": "StatefulPartitionedCall/full_gaze_inference_model_1/cnn_encoder_1/depthwise_conv2d_14_1/depthwise/ReadVariableOp", "op": "Const", "attr": {"value": {"tensor": {"dtype": "DT_FLOAT", "tensorShape": {"dim": [{"size": "5"}, {"size": "5"}, {"size": "24"}, {"size": "1"}]}}}, "dtype": {"type": "DT_FLOAT"}}}, {"name": "StatefulPartitionedCall/full_gaze_inference_model_1/cnn_encoder_1/depthwise_conv2d_14_1/Squeeze", "op": "Const", "attr": {"value": {"tensor": {"dtype": "DT_FLOAT", "tensorShape": {"dim": [{"size": "24"}]}}}, "dtype": {"type": "DT_FLOAT"}}}, {"name": "StatefulPartitionedCall/full_gaze_inference_model_1/cnn_encoder_1/conv2d_18_1/convolution/ReadVariableOp", "op": "Const", "attr": {"value": {"tensor": {"dtype": "DT_FLOAT", "tensorShape": {"dim": [{"size": "1"}, {"size": "1"}, {"size": "24"}, {"size": "96"}]}}}, "dtype": {"type": "DT_FLOAT"}}}, {"name": "StatefulPartitionedCall/full_gaze_inference_model_1/cnn_encoder_1/conv2d_18_1/Squeeze", "op": "Const", "attr": {"value": {"tensor": {"dtype": "DT_FLOAT", "tensorShape": {"dim": [{"size": "96"}]}}}, "dtype": {"type": "DT_FLOAT"}}}, {"name": "StatefulPartitionedCall/full_gaze_inference_model_1/cnn_encoder_1/depthwise_conv2d_11_1/depthwise/ReadVariableOp", "op": "Const", "attr": {"value": {"tensor": {"dtype": "DT_FLOAT", "tensorShape": {"dim": [{"size": "5"}, {"size": "5"}, {"size": "96"}, {"size": "1"}]}}}, "dtype": {"type": "DT_FLOAT"}}}, {"name": "StatefulPartitionedCall/full_gaze_inference_model_1/cnn_encoder_1/depthwise_conv2d_11_1/Squeeze", "op": "Const", "attr": {"value": {"tensor": {"dtype": "DT_FLOAT", "tensorShape": {"dim": [{"size": "96"}]}}}, "dtype": {"type": "DT_FLOAT"}}}, {"name": "StatefulPartitionedCall/full_gaze_inference_model_1/cnn_encoder_1/conv2d_14_1/convolution/ReadVariableOp", "op": "Const", "attr": {"value": {"tensor": {"dtype": "DT_FLOAT", "tensorShape": {"dim": [{"size": "1"}, {"size": "1"}, {"size": "96"}, {"size": "24"}]}}}, "dtype": {"type": "DT_FLOAT"}}}, {"name": "StatefulPartitionedCall/full_gaze_inference_model_1/cnn_encoder_1/conv2d_14_1/Squeeze", "op": "Const", "attr": {"value": {"tensor": {"dtype": "DT_FLOAT", "tensorShape": {"dim": [{"size": "24"}]}}}, "dtype": {"type": "DT_FLOAT"}}}, {"name": "StatefulPartitionedCall/full_gaze_inference_model_1/cnn_encoder_1/depthwise_conv2d_12_1/depthwise/ReadVariableOp", "op": "Const", "attr": {"value": {"tensor": {"dtype": "DT_FLOAT", "tensorShape": {"dim": [{"size": "5"}, {"size": "5"}, {"size": "24"}, {"size": "1"}]}}}, "dtype": {"type": "DT_FLOAT"}}}, {"name": "StatefulPartitionedCall/full_gaze_inference_model_1/cnn_encoder_1/depthwise_conv2d_12_1/Squeeze", "op": "Const", "attr": {"value": {"tensor": {"dtype": "DT_FLOAT", "tensorShape": {"dim": [{"size": "24"}]}}}, "dtype": {"type": "DT_FLOAT"}}}, {"name": "StatefulPartitionedCall/full_gaze_inference_model_1/cnn_encoder_1/conv2d_15_1/convolution/ReadVariableOp", "op": "Const", "attr": {"value": {"tensor": {"dtype": "DT_FLOAT", "tensorShape": {"dim": [{"size": "1"}, {"size": "1"}, {"size": "24"}, {"size": "96"}]}}}, "dtype": {"type": "DT_FLOAT"}}}, {"name": "StatefulPartitionedCall/full_gaze_inference_model_1/cnn_encoder_1/conv2d_15_1/Squeeze", "op": "Const", "attr": {"value": {"tensor": {"dtype": "DT_FLOAT", "tensorShape": {"dim": [{"size": "96"}]}}}, "dtype": {"type": "DT_FLOAT"}}}, {"name": "StatefulPartitionedCall/full_gaze_inference_model_1/cnn_encoder_1/depthwise_conv2d_9_1/depthwise/ReadVariableOp", "op": "Const", "attr": {"value": {"tensor": {"dtype": "DT_FLOAT", "tensorShape": {"dim": [{"size": "5"}, {"size": "5"}, {"size": "96"}, {"size": "1"}]}}}, "dtype": {"type": "DT_FLOAT"}}}, {"name": "StatefulPartitionedCall/full_gaze_inference_model_1/cnn_encoder_1/depthwise_conv2d_9_1/Squeeze", "op": "Const", "attr": {"value": {"tensor": {"dtype": "DT_FLOAT", "tensorShape": {"dim": [{"size": "96"}]}}}, "dtype": {"type": "DT_FLOAT"}}}, {"name": "StatefulPartitionedCall/full_gaze_inference_model_1/cnn_encoder_1/conv2d_12_1/convolution/ReadVariableOp", "op": "Const", "attr": {"value": {"tensor": {"dtype": "DT_FLOAT", "tensorShape": {"dim": [{"size": "1"}, {"size": "1"}, {"size": "96"}, {"size": "24"}]}}}, "dtype": {"type": "DT_FLOAT"}}}, {"name": "StatefulPartitionedCall/full_gaze_inference_model_1/cnn_encoder_1/conv2d_12_1/Squeeze", "op": "Const", "attr": {"value": {"tensor": {"dtype": "DT_FLOAT", "tensorShape": {"dim": [{"size": "24"}]}}}, "dtype": {"type": "DT_FLOAT"}}}, {"name": "StatefulPartitionedCall/full_gaze_inference_model_1/cnn_encoder_1/depthwise_conv2d_10_1/depthwise/ReadVariableOp", "op": "Const", "attr": {"value": {"tensor": {"dtype": "DT_FLOAT", "tensorShape": {"dim": [{"size": "5"}, {"size": "5"}, {"size": "24"}, {"size": "1"}]}}}, "dtype": {"type": "DT_FLOAT"}}}, {"name": "StatefulPartitionedCall/full_gaze_inference_model_1/cnn_encoder_1/depthwise_conv2d_10_1/Squeeze", "op": "Const", "attr": {"value": {"tensor": {"dtype": "DT_FLOAT", "tensorShape": {"dim": [{"size": "24"}]}}}, "dtype": {"type": "DT_FLOAT"}}}, {"name": "StatefulPartitionedCall/full_gaze_inference_model_1/cnn_encoder_1/conv2d_13_1/convolution/ReadVariableOp", "op": "Const", "attr": {"value": {"tensor": {"dtype": "DT_FLOAT", "tensorShape": {"dim": [{"size": "1"}, {"size": "1"}, {"size": "24"}, {"size": "96"}]}}}, "dtype": {"type": "DT_FLOAT"}}}, {"name": "StatefulPartitionedCall/full_gaze_inference_model_1/cnn_encoder_1/conv2d_13_1/Squeeze", "op": "Const", "attr": {"value": {"tensor": {"dtype": "DT_FLOAT", "tensorShape": {"dim": [{"size": "96"}]}}}, "dtype": {"type": "DT_FLOAT"}}}, {"name": "StatefulPartitionedCall/full_gaze_inference_model_1/cnn_encoder_1/depthwise_conv2d_7_1/depthwise/ReadVariableOp", "op": "Const", "attr": {"value": {"tensor": {"dtype": "DT_FLOAT", "tensorShape": {"dim": [{"size": "5"}, {"size": "5"}, {"size": "96"}, {"size": "1"}]}}}, "dtype": {"type": "DT_FLOAT"}}}, {"name": "StatefulPartitionedCall/full_gaze_inference_model_1/cnn_encoder_1/depthwise_conv2d_7_1/Squeeze", "op": "Const", "attr": {"value": {"tensor": {"dtype": "DT_FLOAT", "tensorShape": {"dim": [{"size": "96"}]}}}, "dtype": {"type": "DT_FLOAT"}}}, {"name": "StatefulPartitionedCall/full_gaze_inference_model_1/cnn_encoder_1/conv2d_10_1/convolution/ReadVariableOp", "op": "Const", "attr": {"value": {"tensor": {"dtype": "DT_FLOAT", "tensorShape": {"dim": [{"size": "1"}, {"size": "1"}, {"size": "96"}, {"size": "24"}]}}}, "dtype": {"type": "DT_FLOAT"}}}, {"name": "StatefulPartitionedCall/full_gaze_inference_model_1/cnn_encoder_1/conv2d_10_1/Squeeze", "op": "Const", "attr": {"value": {"tensor": {"dtype": "DT_FLOAT", "tensorShape": {"dim": [{"size": "24"}]}}}, "dtype": {"type": "DT_FLOAT"}}}, {"name": "StatefulPartitionedCall/full_gaze_inference_model_1/cnn_encoder_1/depthwise_conv2d_8_1/depthwise/ReadVariableOp", "op": "Const", "attr": {"value": {"tensor": {"dtype": "DT_FLOAT", "tensorShape": {"dim": [{"size": "5"}, {"size": "5"}, {"size": "24"}, {"size": "1"}]}}}, "dtype": {"type": "DT_FLOAT"}}}, {"name": "StatefulPartitionedCall/full_gaze_inference_model_1/cnn_encoder_1/depthwise_conv2d_8_1/Squeeze", "op": "Const", "attr": {"value": {"tensor": {"dtype": "DT_FLOAT", "tensorShape": {"dim": [{"size": "24"}]}}}, "dtype": {"type": "DT_FLOAT"}}}, {"name": "StatefulPartitionedCall/full_gaze_inference_model_1/cnn_encoder_1/conv2d_11_1/convolution/ReadVariableOp", "op": "Const", "attr": {"value": {"tensor": {"dtype": "DT_FLOAT", "tensorShape": {"dim": [{"size": "1"}, {"size": "1"}, {"size": "24"}, {"size": "96"}]}}}, "dtype": {"type": "DT_FLOAT"}}}, {"name": "StatefulPartitionedCall/full_gaze_inference_model_1/cnn_encoder_1/conv2d_11_1/Squeeze", "op": "Const", "attr": {"value": {"tensor": {"dtype": "DT_FLOAT", "tensorShape": {"dim": [{"size": "96"}]}}}, "dtype": {"type": "DT_FLOAT"}}}, {"name": "StatefulPartitionedCall/full_gaze_inference_model_1/cnn_encoder_1/depthwise_conv2d_5_1/depthwise/ReadVariableOp", "op": "Const", "attr": {"value": {"tensor": {"dtype": "DT_FLOAT", "tensorShape": {"dim": [{"size": "5"}, {"size": "5"}, {"size": "48"}, {"size": "1"}]}}}, "dtype": {"type": "DT_FLOAT"}}}, {"name": "StatefulPartitionedCall/full_gaze_inference_model_1/cnn_encoder_1/depthwise_conv2d_5_1/Squeeze", "op": "Const", "attr": {"value": {"tensor": {"dtype": "DT_FLOAT", "tensorShape": {"dim": [{"size": "48"}]}}}, "dtype": {"type": "DT_FLOAT"}}}, {"name": "StatefulPartitionedCall/full_gaze_inference_model_1/cnn_encoder_1/conv2d_7_1/convolution/ReadVariableOp", "op": "Const", "attr": {"value": {"tensor": {"dtype": "DT_FLOAT", "tensorShape": {"dim": [{"size": "1"}, {"size": "1"}, {"size": "48"}, {"size": "24"}]}}}, "dtype": {"type": "DT_FLOAT"}}}, {"name": "StatefulPartitionedCall/full_gaze_inference_model_1/cnn_encoder_1/conv2d_7_1/Squeeze", "op": "Const", "attr": {"value": {"tensor": {"dtype": "DT_FLOAT", "tensorShape": {"dim": [{"size": "24"}]}}}, "dtype": {"type": "DT_FLOAT"}}}, {"name": "StatefulPartitionedCall/full_gaze_inference_model_1/cnn_encoder_1/depthwise_conv2d_6_1/depthwise/ReadVariableOp", "op": "Const", "attr": {"value": {"tensor": {"dtype": "DT_FLOAT", "tensorShape": {"dim": [{"size": "5"}, {"size": "5"}, {"size": "24"}, {"size": "1"}]}}}, "dtype": {"type": "DT_FLOAT"}}}, {"name": "StatefulPartitionedCall/full_gaze_inference_model_1/cnn_encoder_1/depthwise_conv2d_6_1/Squeeze", "op": "Const", "attr": {"value": {"tensor": {"dtype": "DT_FLOAT", "tensorShape": {"dim": [{"size": "24"}]}}}, "dtype": {"type": "DT_FLOAT"}}}, {"name": "StatefulPartitionedCall/full_gaze_inference_model_1/cnn_encoder_1/conv2d_8_1/convolution/ReadVariableOp", "op": "Const", "attr": {"value": {"tensor": {"dtype": "DT_FLOAT", "tensorShape": {"dim": [{"size": "1"}, {"size": "1"}, {"size": "24"}, {"size": "96"}]}}}, "dtype": {"type": "DT_FLOAT"}}}, {"name": "StatefulPartitionedCall/full_gaze_inference_model_1/cnn_encoder_1/conv2d_8_1/Squeeze", "op": "Const", "attr": {"value": {"tensor": {"dtype": "DT_FLOAT", "tensorShape": {"dim": [{"size": "96"}]}}}, "dtype": {"type": "DT_FLOAT"}}}, {"name": "StatefulPartitionedCall/full_gaze_inference_model_1/cnn_encoder_1/depthwise_conv2d_4_1/depthwise/ReadVariableOp", "op": "Const", "attr": {"value": {"tensor": {"dtype": "DT_FLOAT", "tensorShape": {"dim": [{"size": "5"}, {"size": "5"}, {"size": "48"}, {"size": "1"}]}}}, "dtype": {"type": "DT_FLOAT"}}}, {"name": "StatefulPartitionedCall/full_gaze_inference_model_1/cnn_encoder_1/depthwise_conv2d_4_1/Squeeze", "op": "Const", "attr": {"value": {"tensor": {"dtype": "DT_FLOAT", "tensorShape": {"dim": [{"size": "48"}]}}}, "dtype": {"type": "DT_FLOAT"}}}, {"name": "StatefulPartitionedCall/full_gaze_inference_model_1/cnn_encoder_1/conv2d_6_1/convolution/ReadVariableOp", "op": "Const", "attr": {"value": {"tensor": {"dtype": "DT_FLOAT", "tensorShape": {"dim": [{"size": "1"}, {"size": "1"}, {"size": "48"}, {"size": "48"}]}}}, "dtype": {"type": "DT_FLOAT"}}}, {"name": "StatefulPartitionedCall/full_gaze_inference_model_1/cnn_encoder_1/conv2d_6_1/Squeeze", "op": "Const", "attr": {"value": {"tensor": {"dtype": "DT_FLOAT", "tensorShape": {"dim": [{"size": "48"}]}}}, "dtype": {"type": "DT_FLOAT"}}}, {"name": "StatefulPartitionedCall/full_gaze_inference_model_1/cnn_encoder_1/depthwise_conv2d_3_1/depthwise/ReadVariableOp", "op": "Const", "attr": {"value": {"tensor": {"dtype": "DT_FLOAT", "tensorShape": {"dim": [{"size": "5"}, {"size": "5"}, {"size": "48"}, {"size": "1"}]}}}, "dtype": {"type": "DT_FLOAT"}}}, {"name": "StatefulPartitionedCall/full_gaze_inference_model_1/cnn_encoder_1/depthwise_conv2d_3_1/Squeeze", "op": "Const", "attr": {"value": {"tensor": {"dtype": "DT_FLOAT", "tensorShape": {"dim": [{"size": "48"}]}}}, "dtype": {"type": "DT_FLOAT"}}}, {"name": "StatefulPartitionedCall/full_gaze_inference_model_1/cnn_encoder_1/conv2d_5_1/convolution/ReadVariableOp", "op": "Const", "attr": {"value": {"tensor": {"dtype": "DT_FLOAT", "tensorShape": {"dim": [{"size": "1"}, {"size": "1"}, {"size": "48"}, {"size": "48"}]}}}, "dtype": {"type": "DT_FLOAT"}}}, {"name": "StatefulPartitionedCall/full_gaze_inference_model_1/cnn_encoder_1/conv2d_5_1/Squeeze", "op": "Const", "attr": {"value": {"tensor": {"dtype": "DT_FLOAT", "tensorShape": {"dim": [{"size": "48"}]}}}, "dtype": {"type": "DT_FLOAT"}}}, {"name": "StatefulPartitionedCall/full_gaze_inference_model_1/cnn_encoder_1/depthwise_conv2d_2_1/depthwise/ReadVariableOp", "op": "Const", "attr": {"value": {"tensor": {"dtype": "DT_FLOAT", "tensorShape": {"dim": [{"size": "5"}, {"size": "5"}, {"size": "24"}, {"size": "1"}]}}}, "dtype": {"type": "DT_FLOAT"}}}, {"name": "StatefulPartitionedCall/full_gaze_inference_model_1/cnn_encoder_1/depthwise_conv2d_2_1/Squeeze", "op": "Const", "attr": {"value": {"tensor": {"dtype": "DT_FLOAT", "tensorShape": {"dim": [{"size": "24"}]}}}, "dtype": {"type": "DT_FLOAT"}}}, {"name": "StatefulPartitionedCall/full_gaze_inference_model_1/cnn_encoder_1/conv2d_3_1/convolution/ReadVariableOp", "op": "Const", "attr": {"value": {"tensor": {"dtype": "DT_FLOAT", "tensorShape": {"dim": [{"size": "1"}, {"size": "1"}, {"size": "24"}, {"size": "48"}]}}}, "dtype": {"type": "DT_FLOAT"}}}, {"name": "StatefulPartitionedCall/full_gaze_inference_model_1/cnn_encoder_1/conv2d_3_1/Squeeze", "op": "Const", "attr": {"value": {"tensor": {"dtype": "DT_FLOAT", "tensorShape": {"dim": [{"size": "48"}]}}}, "dtype": {"type": "DT_FLOAT"}}}, {"name": "StatefulPartitionedCall/full_gaze_inference_model_1/cnn_encoder_1/depthwise_conv2d_1_2/depthwise/ReadVariableOp", "op": "Const", "attr": {"value": {"tensor": {"dtype": "DT_FLOAT", "tensorShape": {"dim": [{"size": "5"}, {"size": "5"}, {"size": "24"}, {"size": "1"}]}}}, "dtype": {"type": "DT_FLOAT"}}}, {"name": "StatefulPartitionedCall/full_gaze_inference_model_1/cnn_encoder_1/depthwise_conv2d_1_2/Squeeze", "op": "Const", "attr": {"value": {"tensor": {"dtype": "DT_FLOAT", "tensorShape": {"dim": [{"size": "24"}]}}}, "dtype": {"type": "DT_FLOAT"}}}, {"name": "StatefulPartitionedCall/full_gaze_inference_model_1/cnn_encoder_1/conv2d_2_1/convolution/ReadVariableOp", "op": "Const", "attr": {"value": {"tensor": {"dtype": "DT_FLOAT", "tensorShape": {"dim": [{"size": "1"}, {"size": "1"}, {"size": "24"}, {"size": "24"}]}}}, "dtype": {"type": "DT_FLOAT"}}}, {"name": "StatefulPartitionedCall/full_gaze_inference_model_1/cnn_encoder_1/conv2d_2_1/Squeeze", "op": "Const", "attr": {"value": {"tensor": {"dtype": "DT_FLOAT", "tensorShape": {"dim": [{"size": "24"}]}}}, "dtype": {"type": "DT_FLOAT"}}}, {"name": "StatefulPartitionedCall/full_gaze_inference_model_1/cnn_encoder_1/depthwise_conv2d_1/depthwise/ReadVariableOp", "op": "Const", "attr": {"value": {"tensor": {"dtype": "DT_FLOAT", "tensorShape": {"dim": [{"size": "5"}, {"size": "5"}, {"size": "24"}, {"size": "1"}]}}}, "dtype": {"type": "DT_FLOAT"}}}, {"name": "StatefulPartitionedCall/full_gaze_inference_model_1/cnn_encoder_1/depthwise_conv2d_1/Squeeze", "op": "Const", "attr": {"value": {"tensor": {"dtype": "DT_FLOAT", "tensorShape": {"dim": [{"size": "24"}]}}}, "dtype": {"type": "DT_FLOAT"}}}, {"name": "StatefulPartitionedCall/full_gaze_inference_model_1/cnn_encoder_1/conv2d_1_2/convolution/ReadVariableOp", "op": "Const", "attr": {"value": {"tensor": {"dtype": "DT_FLOAT", "tensorShape": {"dim": [{"size": "1"}, {"size": "1"}, {"size": "24"}, {"size": "24"}]}}}, "dtype": {"type": "DT_FLOAT"}}}, {"name": "StatefulPartitionedCall/full_gaze_inference_model_1/cnn_encoder_1/conv2d_1_2/Squeeze", "op": "Const", "attr": {"value": {"tensor": {"dtype": "DT_FLOAT", "tensorShape": {"dim": [{"size": "24"}]}}}, "dtype": {"type": "DT_FLOAT"}}}, {"name": "StatefulPartitionedCall/full_gaze_inference_model_1/cnn_encoder_1/conv2d_1/convolution/ReadVariableOp", "op": "Const", "attr": {"value": {"tensor": {"dtype": "DT_FLOAT", "tensorShape": {"dim": [{"size": "5"}, {"size": "5"}, {"size": "3"}, {"size": "24"}]}}}, "dtype": {"type": "DT_FLOAT"}}}, {"name": "StatefulPartitionedCall/full_gaze_inference_model_1/cnn_encoder_1/conv2d_1/Squeeze", "op": "Const", "attr": {"value": {"tensor": {"dtype": "DT_FLOAT", "tensorShape": {"dim": [{"size": "24"}]}}}, "dtype": {"type": "DT_FLOAT"}}}, {"name": "StatefulPartitionedCall/full_gaze_inference_model_1/cnn_encoder_1/conv2d_4_1/convolution/ReadVariableOp", "op": "Const", "attr": {"value": {"tensor": {"dtype": "DT_FLOAT", "tensorShape": {"dim": [{"size": "1"}, {"size": "1"}, {"size": "24"}, {"size": "48"}]}}}, "dtype": {"type": "DT_FLOAT"}}}, {"name": "StatefulPartitionedCall/full_gaze_inference_model_1/cnn_encoder_1/conv2d_4_1/Squeeze", "op": "Const", "attr": {"value": {"tensor": {"dtype": "DT_FLOAT", "tensorShape": {"dim": [{"size": "48"}]}}}, "dtype": {"type": "DT_FLOAT"}}}, {"name": "StatefulPartitionedCall/full_gaze_inference_model_1/cnn_encoder_1/conv2d_9_1/convolution/ReadVariableOp", "op": "Const", "attr": {"value": {"tensor": {"dtype": "DT_FLOAT", "tensorShape": {"dim": [{"size": "1"}, {"size": "1"}, {"size": "48"}, {"size": "96"}]}}}, "dtype": {"type": "DT_FLOAT"}}}, {"name": "StatefulPartitionedCall/full_gaze_inference_model_1/cnn_encoder_1/conv2d_9_1/Squeeze", "op": "Const", "attr": {"value": {"tensor": {"dtype": "DT_FLOAT", "tensorShape": {"dim": [{"size": "96"}]}}}, "dtype": {"type": "DT_FLOAT"}}}, {"name": "StatefulPartitionedCall/full_gaze_inference_model_1/cnn_encoder_1/conv2d_16_1/convolution/ReadVariableOp", "op": "Const", "attr": {"value": {"tensor": {"dtype": "DT_FLOAT", "tensorShape": {"dim": [{"size": "1"}, {"size": "1"}, {"size": "96"}, {"size": "96"}]}}}, "dtype": {"type": "DT_FLOAT"}}}, {"name": "StatefulPartitionedCall/full_gaze_inference_model_1/cnn_encoder_1/conv2d_16_1/Squeeze", "op": "Const", "attr": {"value": {"tensor": {"dtype": "DT_FLOAT", "tensorShape": {"dim": [{"size": "96"}]}}}, "dtype": {"type": "DT_FLOAT"}}}, {"name": "StatefulPartitionedCall/full_gaze_inference_model_1/cnn_encoder_1/conv2d_21_1/convolution/ReadVariableOp", "op": "Const", "attr": {"value": {"tensor": {"dtype": "DT_FLOAT", "tensorShape": {"dim": [{"size": "3"}, {"size": "3"}, {"size": "96"}, {"size": "64"}]}}}, "dtype": {"type": "DT_FLOAT"}}}, {"name": "StatefulPartitionedCall/full_gaze_inference_model_1/cnn_encoder_1/conv2d_21_1/Squeeze", "op": "Const", "attr": {"value": {"tensor": {"dtype": "DT_FLOAT", "tensorShape": {"dim": [{"size": "64"}]}}}, "dtype": {"type": "DT_FLOAT"}}}, {"name": "StatefulPartitionedCall/full_gaze_inference_model_1/cnn_encoder_1/batch_normalization_1/batchnorm/mul", "op": "Const", "attr": {"value": {"tensor": {"dtype": "DT_FLOAT", "tensorShape": {"dim": [{"size": "64"}]}}}, "dtype": {"type": "DT_FLOAT"}}}, {"name": "StatefulPartitionedCall/full_gaze_inference_model_1/cnn_encoder_1/batch_normalization_1/batchnorm/sub", "op": "Const", "attr": {"value": {"tensor": {"dtype": "DT_FLOAT", "tensorShape": {"dim": [{"size": "64"}]}}}, "dtype": {"type": "DT_FLOAT"}}}, {"name": "StatefulPartitionedCall/full_gaze_inference_model_1/cnn_encoder_1/conv2d_22_1/convolution/ReadVariableOp", "op": "Const", "attr": {"value": {"tensor": {"dtype": "DT_FLOAT", "tensorShape": {"dim": [{"size": "3"}, {"size": "3"}, {"size": "64"}, {"size": "32"}]}}}, "dtype": {"type": "DT_FLOAT"}}}, {"name": "StatefulPartitionedCall/full_gaze_inference_model_1/cnn_encoder_1/conv2d_22_1/Squeeze", "op": "Const", "attr": {"value": {"tensor": {"dtype": "DT_FLOAT", "tensorShape": {"dim": [{"size": "32"}]}}}, "dtype": {"type": "DT_FLOAT"}}}, {"name": "StatefulPartitionedCall/full_gaze_inference_model_1/cnn_encoder_1/batch_normalization_1_2/batchnorm/mul", "op": "Const", "attr": {"value": {"tensor": {"dtype": "DT_FLOAT", "tensorShape": {"dim": [{"size": "32"}]}}}, "dtype": {"type": "DT_FLOAT"}}}, {"name": "StatefulPartitionedCall/full_gaze_inference_model_1/cnn_encoder_1/batch_normalization_1_2/batchnorm/sub", "op": "Const", "attr": {"value": {"tensor": {"dtype": "DT_FLOAT", "tensorShape": {"dim": [{"size": "32"}]}}}, "dtype": {"type": "DT_FLOAT"}}}, {"name": "StatefulPartitionedCall/full_gaze_inference_model_1/cnn_encoder_1/embedding_1/Reshape/shape", "op": "Const", "attr": {"value": {"tensor": {"dtype": "DT_INT32", "tensorShape": {"dim": [{"size": "2"}]}}}, "dtype": {"type": "DT_INT32"}}}, {"name": "StatefulPartitionedCall/full_gaze_inference_model_1/gaze_mlp_1/feature_concat_1/concat/axis", "op": "Const", "attr": {"value": {"tensor": {"dtype": "DT_INT32", "tensorShape": {}}}, "dtype": {"type": "DT_INT32"}}}, {"name": "StatefulPartitionedCall/full_gaze_inference_model_1/gaze_mlp_1/dense_1/Cast/ReadVariableOp", "op": "Const", "attr": {"value": {"tensor": {"dtype": "DT_FLOAT", "tensorShape": {"dim": [{"size": "518"}, {"size": "16"}]}}}, "dtype": {"type": "DT_FLOAT"}}}, {"name": "StatefulPartitionedCall/full_gaze_inference_model_1/gaze_mlp_1/dense_1/BiasAdd/ReadVariableOp", "op": "Const", "attr": {"value": {"tensor": {"dtype": "DT_FLOAT", "tensorShape": {"dim": [{"size": "16"}]}}}, "dtype": {"type": "DT_FLOAT"}}}, {"name": "StatefulPartitionedCall/full_gaze_inference_model_1/gaze_mlp_1/dense_1_2/Cast/ReadVariableOp", "op": "Const", "attr": {"value": {"tensor": {"dtype": "DT_FLOAT", "tensorShape": {"dim": [{"size": "16"}, {"size": "16"}]}}}, "dtype": {"type": "DT_FLOAT"}}}, {"name": "StatefulPartitionedCall/full_gaze_inference_model_1/gaze_mlp_1/dense_1_2/BiasAdd/ReadVariableOp", "op": "Const", "attr": {"value": {"tensor": {"dtype": "DT_FLOAT", "tensorShape": {"dim": [{"size": "16"}]}}}, "dtype": {"type": "DT_FLOAT"}}}, {"name": "StatefulPartitionedCall/full_gaze_inference_model_1/gaze_mlp_1/gaze_output_1/Cast/ReadVariableOp", "op": "Const", "attr": {"value": {"tensor": {"dtype": "DT_FLOAT", "tensorShape": {"dim": [{"size": "16"}, {"size": "2"}]}}}, "dtype": {"type": "DT_FLOAT"}}}, {"name": "StatefulPartitionedCall/full_gaze_inference_model_1/gaze_mlp_1/gaze_output_1/BiasAdd/ReadVariableOp", "op": "Const", "attr": {"value": {"tensor": {"dtype": "DT_FLOAT", "tensorShape": {"dim": [{"size": "2"}]}}}, "dtype": {"type": "DT_FLOAT"}}}, {"name": "face_origin_3d", "op": "Placeholder", "attr": {"shape": {"shape": {"dim": [{"size": "-1"}, {"size": "3"}]}}, "dtype": {"type": "DT_FLOAT"}}}, {"name": "head_vector", "op": "Placeholder", "attr": {"shape": {"shape": {"dim": [{"size": "-1"}, {"size": "3"}]}}, "dtype": {"type": "DT_FLOAT"}}}, {"name": "image", "op": "Placeholder", "attr": {"shape": {"shape": {"dim": [{"size": "-1"}, {"size": "128"}, {"size": "512"}, {"size": "3"}]}}, "dtype": {"type": "DT_FLOAT"}}}, {"name": "StatefulPartitionedCall/full_gaze_inference_model_1/cnn_encoder_1/conv2d_1/Relu", "op": "_FusedConv2D", "input": ["image", "StatefulPartitionedCall/full_gaze_inference_model_1/cnn_encoder_1/conv2d_1/convolution/ReadVariableOp", "StatefulPartitionedCall/full_gaze_inference_model_1/cnn_encoder_1/conv2d_1/Squeeze"], "device": "/device:CPU:0", "attr": {"num_host_args": {"i": "0"}, "_input_shapes": {"list": {"shape": [{"dim": [{"size": "-3"}, {"size": "-4"}, {"size": "-5"}, {"size": "-6"}]}, {"dim": [{"size": "5"}, {"size": "5"}, {"size": "3"}, {"size": "24"}]}]}}, "filter_format": {"s": "SFdJTw=="}, "data_format": {"s": "TkhXQw=="}, "fused_ops": {"list": {"s": ["Qmlhc0FkZA==", "UmVsdQ=="]}}, "num_args": {"i": "1"}, "strides": {"list": {"i": ["1", "2", "2", "1"]}}, "TArgs": {"list": {"type": ["DT_FLOAT"]}}, "padding": {"s": "U0FNRQ=="}, "use_cudnn_on_gpu": {"b": true}, "leakyrelu_alpha": {"f": 0.2}, "epsilon": {"f": 0.0}, "T": {"type": "DT_FLOAT"}, "explicit_paddings": {"list": {}}, "dilations": {"list": {"i": ["1", "1", "1", "1"]}}}}, {"name": "StatefulPartitionedCall/full_gaze_inference_model_1/cnn_encoder_1/depthwise_conv2d_1/depthwise", "op": "FusedDepthwiseConv2dNative", "input": ["StatefulPartitionedCall/full_gaze_inference_model_1/cnn_encoder_1/conv2d_1/Relu", "StatefulPartitionedCall/full_gaze_inference_model_1/cnn_encoder_1/depthwise_conv2d_1/depthwise/ReadVariableOp", "StatefulPartitionedCall/full_gaze_inference_model_1/cnn_encoder_1/depthwise_conv2d_1/Squeeze"], "attr": {"padding": {"s": "U0FNRQ=="}, "_input_shapes": {"list": {"shape": [{"dim": [{"size": "-3"}, {"size": "-7"}, {"size": "-8"}, {"size": "24"}]}, {"dim": [{"size": "5"}, {"size": "5"}, {"size": "24"}, {"size": "1"}]}]}}, "data_format": {"s": "TkhXQw=="}, "strides": {"list": {"i": ["1", "1", "1", "1"]}}, "num_args": {"i": "1"}, "fused_ops": {"list": {"s": ["Qmlhc0FkZA=="]}}, "T": {"type": "DT_FLOAT"}, "explicit_paddings": {"list": {}}, "dilations": {"list": {"i": ["1", "1", "1", "1"]}}}}, {"name": "StatefulPartitionedCall/full_gaze_inference_model_1/cnn_encoder_1/conv2d_1_2/BiasAdd", "op": "_FusedConv2D", "input": ["StatefulPartitionedCall/full_gaze_inference_model_1/cnn_encoder_1/depthwise_conv2d_1/depthwise", "StatefulPartitionedCall/full_gaze_inference_model_1/cnn_encoder_1/conv2d_1_2/convolution/ReadVariableOp", "StatefulPartitionedCall/full_gaze_inference_model_1/cnn_encoder_1/conv2d_1_2/Squeeze"], "device": "/device:CPU:0", "attr": {"num_host_args": {"i": "0"}, "_input_shapes": {"list": {"shape": [{"dim": [{"size": "-3"}, {"size": "-7"}, {"size": "-8"}, {"size": "24"}]}, {"dim": [{"size": "1"}, {"size": "1"}, {"size": "24"}, {"size": "24"}]}]}}, "filter_format": {"s": "SFdJTw=="}, "data_format": {"s": "TkhXQw=="}, "fused_ops": {"list": {"s": ["Qmlhc0FkZA=="]}}, "num_args": {"i": "1"}, "strides": {"list": {"i": ["1", "1", "1", "1"]}}, "TArgs": {"list": {"type": ["DT_FLOAT"]}}, "padding": {"s": "U0FNRQ=="}, "use_cudnn_on_gpu": {"b": true}, "leakyrelu_alpha": {"f": 0.2}, "epsilon": {"f": 0.0}, "T": {"type": "DT_FLOAT"}, "explicit_paddings": {"list": {}}, "dilations": {"list": {"i": ["1", "1", "1", "1"]}}}}, {"name": "StatefulPartitionedCall/full_gaze_inference_model_1/cnn_encoder_1/add_1/Add", "op": "AddV2", "input": ["StatefulPartitionedCall/full_gaze_inference_model_1/cnn_encoder_1/conv2d_1_2/BiasAdd", "StatefulPartitionedCall/full_gaze_inference_model_1/cnn_encoder_1/conv2d_1/Relu"], "attr": {"T": {"type": "DT_FLOAT"}}}, {"name": "StatefulPartitionedCall/full_gaze_inference_model_1/cnn_encoder_1/activation_1/Relu", "op": "Relu", "input": ["StatefulPartitionedCall/full_gaze_inference_model_1/cnn_encoder_1/add_1/Add"], "attr": {"T": {"type": "DT_FLOAT"}}}, {"name": "StatefulPartitionedCall/full_gaze_inference_model_1/cnn_encoder_1/depthwise_conv2d_1_2/depthwise", "op": "FusedDepthwiseConv2dNative", "input": ["StatefulPartitionedCall/full_gaze_inference_model_1/cnn_encoder_1/activation_1/Relu", "StatefulPartitionedCall/full_gaze_inference_model_1/cnn_encoder_1/depthwise_conv2d_1_2/depthwise/ReadVariableOp", "StatefulPartitionedCall/full_gaze_inference_model_1/cnn_encoder_1/depthwise_conv2d_1_2/Squeeze"], "attr": {"padding": {"s": "U0FNRQ=="}, "_input_shapes": {"list": {"shape": [{"dim": [{"size": "-3"}, {"size": "-7"}, {"size": "-8"}, {"size": "24"}]}, {"dim": [{"size": "5"}, {"size": "5"}, {"size": "24"}, {"size": "1"}]}]}}, "data_format": {"s": "TkhXQw=="}, "strides": {"list": {"i": ["1", "1", "1", "1"]}}, "num_args": {"i": "1"}, "fused_ops": {"list": {"s": ["Qmlhc0FkZA=="]}}, "T": {"type": "DT_FLOAT"}, "explicit_paddings": {"list": {}}, "dilations": {"list": {"i": ["1", "1", "1", "1"]}}}}, {"name": "StatefulPartitionedCall/full_gaze_inference_model_1/cnn_encoder_1/conv2d_2_1/BiasAdd", "op": "_FusedConv2D", "input": ["StatefulPartitionedCall/full_gaze_inference_model_1/cnn_encoder_1/depthwise_conv2d_1_2/depthwise", "StatefulPartitionedCall/full_gaze_inference_model_1/cnn_encoder_1/conv2d_2_1/convolution/ReadVariableOp", "StatefulPartitionedCall/full_gaze_inference_model_1/cnn_encoder_1/conv2d_2_1/Squeeze"], "device": "/device:CPU:0", "attr": {"num_host_args": {"i": "0"}, "data_format": {"s": "TkhXQw=="}, "filter_format": {"s": "SFdJTw=="}, "_input_shapes": {"list": {"shape": [{"dim": [{"size": "-3"}, {"size": "-7"}, {"size": "-8"}, {"size": "24"}]}, {"dim": [{"size": "1"}, {"size": "1"}, {"size": "24"}, {"size": "24"}]}]}}, "strides": {"list": {"i": ["1", "1", "1", "1"]}}, "num_args": {"i": "1"}, "fused_ops": {"list": {"s": ["Qmlhc0FkZA=="]}}, "TArgs": {"list": {"type": ["DT_FLOAT"]}}, "padding": {"s": "U0FNRQ=="}, "use_cudnn_on_gpu": {"b": true}, "leakyrelu_alpha": {"f": 0.2}, "epsilon": {"f": 0.0}, "T": {"type": "DT_FLOAT"}, "explicit_paddings": {"list": {}}, "dilations": {"list": {"i": ["1", "1", "1", "1"]}}}}, {"name": "StatefulPartitionedCall/full_gaze_inference_model_1/cnn_encoder_1/add_1_2/Add", "op": "AddV2", "input": ["StatefulPartitionedCall/full_gaze_inference_model_1/cnn_encoder_1/conv2d_2_1/BiasAdd", "StatefulPartitionedCall/full_gaze_inference_model_1/cnn_encoder_1/activation_1/Relu"], "attr": {"T": {"type": "DT_FLOAT"}}}, {"name": "StatefulPartitionedCall/full_gaze_inference_model_1/cnn_encoder_1/activation_1_2/Relu", "op": "Relu", "input": ["StatefulPartitionedCall/full_gaze_inference_model_1/cnn_encoder_1/add_1_2/Add"], "attr": {"T": {"type": "DT_FLOAT"}}}, {"name": "StatefulPartitionedCall/full_gaze_inference_model_1/cnn_encoder_1/depthwise_conv2d_2_1/depthwise", "op": "FusedDepthwiseConv2dNative", "input": ["StatefulPartitionedCall/full_gaze_inference_model_1/cnn_encoder_1/activation_1_2/Relu", "StatefulPartitionedCall/full_gaze_inference_model_1/cnn_encoder_1/depthwise_conv2d_2_1/depthwise/ReadVariableOp", "StatefulPartitionedCall/full_gaze_inference_model_1/cnn_encoder_1/depthwise_conv2d_2_1/Squeeze"], "attr": {"padding": {"s": "U0FNRQ=="}, "_input_shapes": {"list": {"shape": [{"dim": [{"size": "-3"}, {"size": "-7"}, {"size": "-8"}, {"size": "24"}]}, {"dim": [{"size": "5"}, {"size": "5"}, {"size": "24"}, {"size": "1"}]}]}}, "data_format": {"s": "TkhXQw=="}, "strides": {"list": {"i": ["1", "2", "2", "1"]}}, "num_args": {"i": "1"}, "fused_ops": {"list": {"s": ["Qmlhc0FkZA=="]}}, "T": {"type": "DT_FLOAT"}, "explicit_paddings": {"list": {}}, "dilations": {"list": {"i": ["1", "1", "1", "1"]}}}}, {"name": "StatefulPartitionedCall/full_gaze_inference_model_1/cnn_encoder_1/max_pooling2d_1/MaxPool2d", "op": "MaxPool", "input": ["StatefulPartitionedCall/full_gaze_inference_model_1/cnn_encoder_1/activation_1_2/Relu"], "attr": {"padding": {"s": "VkFMSUQ="}, "data_format": {"s": "TkhXQw=="}, "T": {"type": "DT_FLOAT"}, "explicit_paddings": {"list": {}}, "ksize": {"list": {"i": ["1", "2", "2", "1"]}}, "strides": {"list": {"i": ["1", "2", "2", "1"]}}}}, {"name": "StatefulPartitionedCall/full_gaze_inference_model_1/cnn_encoder_1/conv2d_4_1/BiasAdd", "op": "_FusedConv2D", "input": ["StatefulPartitionedCall/full_gaze_inference_model_1/cnn_encoder_1/max_pooling2d_1/MaxPool2d", "StatefulPartitionedCall/full_gaze_inference_model_1/cnn_encoder_1/conv2d_4_1/convolution/ReadVariableOp", "StatefulPartitionedCall/full_gaze_inference_model_1/cnn_encoder_1/conv2d_4_1/Squeeze"], "device": "/device:CPU:0", "attr": {"num_host_args": {"i": "0"}, "data_format": {"s": "TkhXQw=="}, "filter_format": {"s": "SFdJTw=="}, "_input_shapes": {"list": {"shape": [{"dim": [{"size": "-3"}, {"size": "-11"}, {"size": "-12"}, {"size": "24"}]}, {"dim": [{"size": "1"}, {"size": "1"}, {"size": "24"}, {"size": "48"}]}]}}, "strides": {"list": {"i": ["1", "1", "1", "1"]}}, "num_args": {"i": "1"}, "fused_ops": {"list": {"s": ["Qmlhc0FkZA=="]}}, "TArgs": {"list": {"type": ["DT_FLOAT"]}}, "padding": {"s": "U0FNRQ=="}, "use_cudnn_on_gpu": {"b": true}, "leakyrelu_alpha": {"f": 0.2}, "epsilon": {"f": 0.0}, "T": {"type": "DT_FLOAT"}, "explicit_paddings": {"list": {}}, "dilations": {"list": {"i": ["1", "1", "1", "1"]}}}}, {"name": "StatefulPartitionedCall/full_gaze_inference_model_1/cnn_encoder_1/conv2d_3_1/BiasAdd", "op": "_FusedConv2D", "input": ["StatefulPartitionedCall/full_gaze_inference_model_1/cnn_encoder_1/depthwise_conv2d_2_1/depthwise", "StatefulPartitionedCall/full_gaze_inference_model_1/cnn_encoder_1/conv2d_3_1/convolution/ReadVariableOp", "StatefulPartitionedCall/full_gaze_inference_model_1/cnn_encoder_1/conv2d_3_1/Squeeze"], "device": "/device:CPU:0", "attr": {"num_host_args": {"i": "0"}, "_input_shapes": {"list": {"shape": [{"dim": [{"size": "-3"}, {"size": "-9"}, {"size": "-10"}, {"size": "24"}]}, {"dim": [{"size": "1"}, {"size": "1"}, {"size": "24"}, {"size": "48"}]}]}}, "filter_format": {"s": "SFdJTw=="}, "data_format": {"s": "TkhXQw=="}, "fused_ops": {"list": {"s": ["Qmlhc0FkZA=="]}}, "num_args": {"i": "1"}, "strides": {"list": {"i": ["1", "1", "1", "1"]}}, "TArgs": {"list": {"type": ["DT_FLOAT"]}}, "padding": {"s": "U0FNRQ=="}, "use_cudnn_on_gpu": {"b": true}, "leakyrelu_alpha": {"f": 0.2}, "epsilon": {"f": 0.0}, "T": {"type": "DT_FLOAT"}, "explicit_paddings": {"list": {}}, "dilations": {"list": {"i": ["1", "1", "1", "1"]}}}}, {"name": "StatefulPartitionedCall/full_gaze_inference_model_1/cnn_encoder_1/add_2_1/Add", "op": "AddV2", "input": ["StatefulPartitionedCall/full_gaze_inference_model_1/cnn_encoder_1/conv2d_3_1/BiasAdd", "StatefulPartitionedCall/full_gaze_inference_model_1/cnn_encoder_1/conv2d_4_1/BiasAdd"], "attr": {"T": {"type": "DT_FLOAT"}}}, {"name": "StatefulPartitionedCall/full_gaze_inference_model_1/cnn_encoder_1/activation_2_1/Relu", "op": "Relu", "input": ["StatefulPartitionedCall/full_gaze_inference_model_1/cnn_encoder_1/add_2_1/Add"], "attr": {"T": {"type": "DT_FLOAT"}}}, {"name": "StatefulPartitionedCall/full_gaze_inference_model_1/cnn_encoder_1/depthwise_conv2d_3_1/depthwise", "op": "FusedDepthwiseConv2dNative", "input": ["StatefulPartitionedCall/full_gaze_inference_model_1/cnn_encoder_1/activation_2_1/Relu", "StatefulPartitionedCall/full_gaze_inference_model_1/cnn_encoder_1/depthwise_conv2d_3_1/depthwise/ReadVariableOp", "StatefulPartitionedCall/full_gaze_inference_model_1/cnn_encoder_1/depthwise_conv2d_3_1/Squeeze"], "attr": {"padding": {"s": "U0FNRQ=="}, "_input_shapes": {"list": {"shape": [{"dim": [{"size": "-3"}, {"size": "-13"}, {"size": "-14"}, {"size": "48"}]}, {"dim": [{"size": "5"}, {"size": "5"}, {"size": "48"}, {"size": "1"}]}]}}, "data_format": {"s": "TkhXQw=="}, "strides": {"list": {"i": ["1", "1", "1", "1"]}}, "num_args": {"i": "1"}, "fused_ops": {"list": {"s": ["Qmlhc0FkZA=="]}}, "T": {"type": "DT_FLOAT"}, "explicit_paddings": {"list": {}}, "dilations": {"list": {"i": ["1", "1", "1", "1"]}}}}, {"name": "StatefulPartitionedCall/full_gaze_inference_model_1/cnn_encoder_1/conv2d_5_1/BiasAdd", "op": "_FusedConv2D", "input": ["StatefulPartitionedCall/full_gaze_inference_model_1/cnn_encoder_1/depthwise_conv2d_3_1/depthwise", "StatefulPartitionedCall/full_gaze_inference_model_1/cnn_encoder_1/conv2d_5_1/convolution/ReadVariableOp", "StatefulPartitionedCall/full_gaze_inference_model_1/cnn_encoder_1/conv2d_5_1/Squeeze"], "device": "/device:CPU:0", "attr": {"num_host_args": {"i": "0"}, "data_format": {"s": "TkhXQw=="}, "filter_format": {"s": "SFdJTw=="}, "_input_shapes": {"list": {"shape": [{"dim": [{"size": "-3"}, {"size": "-13"}, {"size": "-14"}, {"size": "48"}]}, {"dim": [{"size": "1"}, {"size": "1"}, {"size": "48"}, {"size": "48"}]}]}}, "fused_ops": {"list": {"s": ["Qmlhc0FkZA=="]}}, "num_args": {"i": "1"}, "strides": {"list": {"i": ["1", "1", "1", "1"]}}, "TArgs": {"list": {"type": ["DT_FLOAT"]}}, "padding": {"s": "U0FNRQ=="}, "use_cudnn_on_gpu": {"b": true}, "leakyrelu_alpha": {"f": 0.2}, "epsilon": {"f": 0.0}, "T": {"type": "DT_FLOAT"}, "explicit_paddings": {"list": {}}, "dilations": {"list": {"i": ["1", "1", "1", "1"]}}}}, {"name": "StatefulPartitionedCall/full_gaze_inference_model_1/cnn_encoder_1/add_3_1/Add", "op": "AddV2", "input": ["StatefulPartitionedCall/full_gaze_inference_model_1/cnn_encoder_1/conv2d_5_1/BiasAdd", "StatefulPartitionedCall/full_gaze_inference_model_1/cnn_encoder_1/activation_2_1/Relu"], "attr": {"T": {"type": "DT_FLOAT"}}}, {"name": "StatefulPartitionedCall/full_gaze_inference_model_1/cnn_encoder_1/activation_3_1/Relu", "op": "Relu", "input": ["StatefulPartitionedCall/full_gaze_inference_model_1/cnn_encoder_1/add_3_1/Add"], "attr": {"T": {"type": "DT_FLOAT"}}}, {"name": "StatefulPartitionedCall/full_gaze_inference_model_1/cnn_encoder_1/depthwise_conv2d_4_1/depthwise", "op": "FusedDepthwiseConv2dNative", "input": ["StatefulPartitionedCall/full_gaze_inference_model_1/cnn_encoder_1/activation_3_1/Relu", "StatefulPartitionedCall/full_gaze_inference_model_1/cnn_encoder_1/depthwise_conv2d_4_1/depthwise/ReadVariableOp", "StatefulPartitionedCall/full_gaze_inference_model_1/cnn_encoder_1/depthwise_conv2d_4_1/Squeeze"], "attr": {"padding": {"s": "U0FNRQ=="}, "_input_shapes": {"list": {"shape": [{"dim": [{"size": "-3"}, {"size": "-13"}, {"size": "-14"}, {"size": "48"}]}, {"dim": [{"size": "5"}, {"size": "5"}, {"size": "48"}, {"size": "1"}]}]}}, "data_format": {"s": "TkhXQw=="}, "strides": {"list": {"i": ["1", "1", "1", "1"]}}, "num_args": {"i": "1"}, "fused_ops": {"list": {"s": ["Qmlhc0FkZA=="]}}, "T": {"type": "DT_FLOAT"}, "explicit_paddings": {"list": {}}, "dilations": {"list": {"i": ["1", "1", "1", "1"]}}}}, {"name": "StatefulPartitionedCall/full_gaze_inference_model_1/cnn_encoder_1/conv2d_6_1/BiasAdd", "op": "_FusedConv2D", "input": ["StatefulPartitionedCall/full_gaze_inference_model_1/cnn_encoder_1/depthwise_conv2d_4_1/depthwise", "StatefulPartitionedCall/full_gaze_inference_model_1/cnn_encoder_1/conv2d_6_1/convolution/ReadVariableOp", "StatefulPartitionedCall/full_gaze_inference_model_1/cnn_encoder_1/conv2d_6_1/Squeeze"], "device": "/device:CPU:0", "attr": {"num_host_args": {"i": "0"}, "data_format": {"s": "TkhXQw=="}, "filter_format": {"s": "SFdJTw=="}, "_input_shapes": {"list": {"shape": [{"dim": [{"size": "-3"}, {"size": "-13"}, {"size": "-14"}, {"size": "48"}]}, {"dim": [{"size": "1"}, {"size": "1"}, {"size": "48"}, {"size": "48"}]}]}}, "fused_ops": {"list": {"s": ["Qmlhc0FkZA=="]}}, "num_args": {"i": "1"}, "strides": {"list": {"i": ["1", "1", "1", "1"]}}, "TArgs": {"list": {"type": ["DT_FLOAT"]}}, "padding": {"s": "U0FNRQ=="}, "use_cudnn_on_gpu": {"b": true}, "leakyrelu_alpha": {"f": 0.2}, "epsilon": {"f": 0.0}, "T": {"type": "DT_FLOAT"}, "explicit_paddings": {"list": {}}, "dilations": {"list": {"i": ["1", "1", "1", "1"]}}}}, {"name": "StatefulPartitionedCall/full_gaze_inference_model_1/cnn_encoder_1/add_4_1/Add", "op": "AddV2", "input": ["StatefulPartitionedCall/full_gaze_inference_model_1/cnn_encoder_1/conv2d_6_1/BiasAdd", "StatefulPartitionedCall/full_gaze_inference_model_1/cnn_encoder_1/activation_3_1/Relu"], "attr": {"T": {"type": "DT_FLOAT"}}}, {"name": "StatefulPartitionedCall/full_gaze_inference_model_1/cnn_encoder_1/activation_4_1/Relu", "op": "Relu", "input": ["StatefulPartitionedCall/full_gaze_inference_model_1/cnn_encoder_1/add_4_1/Add"], "attr": {"T": {"type": "DT_FLOAT"}}}, {"name": "StatefulPartitionedCall/full_gaze_inference_model_1/cnn_encoder_1/depthwise_conv2d_5_1/depthwise", "op": "FusedDepthwiseConv2dNative", "input": ["StatefulPartitionedCall/full_gaze_inference_model_1/cnn_encoder_1/activation_4_1/Relu", "StatefulPartitionedCall/full_gaze_inference_model_1/cnn_encoder_1/depthwise_conv2d_5_1/depthwise/ReadVariableOp", "StatefulPartitionedCall/full_gaze_inference_model_1/cnn_encoder_1/depthwise_conv2d_5_1/Squeeze"], "attr": {"padding": {"s": "U0FNRQ=="}, "data_format": {"s": "TkhXQw=="}, "_input_shapes": {"list": {"shape": [{"dim": [{"size": "-3"}, {"size": "-13"}, {"size": "-14"}, {"size": "48"}]}, {"dim": [{"size": "5"}, {"size": "5"}, {"size": "48"}, {"size": "1"}]}]}}, "strides": {"list": {"i": ["1", "2", "2", "1"]}}, "num_args": {"i": "1"}, "fused_ops": {"list": {"s": ["Qmlhc0FkZA=="]}}, "T": {"type": "DT_FLOAT"}, "explicit_paddings": {"list": {}}, "dilations": {"list": {"i": ["1", "1", "1", "1"]}}}}, {"name": "StatefulPartitionedCall/full_gaze_inference_model_1/cnn_encoder_1/max_pooling2d_1_2/MaxPool2d", "op": "MaxPool", "input": ["StatefulPartitionedCall/full_gaze_inference_model_1/cnn_encoder_1/activation_4_1/Relu"], "attr": {"padding": {"s": "VkFMSUQ="}, "data_format": {"s": "TkhXQw=="}, "T": {"type": "DT_FLOAT"}, "explicit_paddings": {"list": {}}, "ksize": {"list": {"i": ["1", "2", "2", "1"]}}, "strides": {"list": {"i": ["1", "2", "2", "1"]}}}}, {"name": "StatefulPartitionedCall/full_gaze_inference_model_1/cnn_encoder_1/conv2d_9_1/BiasAdd", "op": "_FusedConv2D", "input": ["StatefulPartitionedCall/full_gaze_inference_model_1/cnn_encoder_1/max_pooling2d_1_2/MaxPool2d", "StatefulPartitionedCall/full_gaze_inference_model_1/cnn_encoder_1/conv2d_9_1/convolution/ReadVariableOp", "StatefulPartitionedCall/full_gaze_inference_model_1/cnn_encoder_1/conv2d_9_1/Squeeze"], "device": "/device:CPU:0", "attr": {"num_host_args": {"i": "0"}, "data_format": {"s": "TkhXQw=="}, "filter_format": {"s": "SFdJTw=="}, "_input_shapes": {"list": {"shape": [{"dim": [{"size": "-3"}, {"size": "-17"}, {"size": "-18"}, {"size": "48"}]}, {"dim": [{"size": "1"}, {"size": "1"}, {"size": "48"}, {"size": "96"}]}]}}, "strides": {"list": {"i": ["1", "1", "1", "1"]}}, "num_args": {"i": "1"}, "fused_ops": {"list": {"s": ["Qmlhc0FkZA=="]}}, "TArgs": {"list": {"type": ["DT_FLOAT"]}}, "padding": {"s": "U0FNRQ=="}, "use_cudnn_on_gpu": {"b": true}, "leakyrelu_alpha": {"f": 0.2}, "epsilon": {"f": 0.0}, "T": {"type": "DT_FLOAT"}, "explicit_paddings": {"list": {}}, "dilations": {"list": {"i": ["1", "1", "1", "1"]}}}}, {"name": "StatefulPartitionedCall/full_gaze_inference_model_1/cnn_encoder_1/activation_5_1/Relu", "op": "_FusedConv2D", "input": ["StatefulPartitionedCall/full_gaze_inference_model_1/cnn_encoder_1/depthwise_conv2d_5_1/depthwise", "StatefulPartitionedCall/full_gaze_inference_model_1/cnn_encoder_1/conv2d_7_1/convolution/ReadVariableOp", "StatefulPartitionedCall/full_gaze_inference_model_1/cnn_encoder_1/conv2d_7_1/Squeeze"], "device": "/device:CPU:0", "attr": {"num_host_args": {"i": "0"}, "data_format": {"s": "TkhXQw=="}, "filter_format": {"s": "SFdJTw=="}, "_input_shapes": {"list": {"shape": [{"dim": [{"size": "-3"}, {"size": "-15"}, {"size": "-16"}, {"size": "48"}]}, {"dim": [{"size": "1"}, {"size": "1"}, {"size": "48"}, {"size": "24"}]}]}}, "fused_ops": {"list": {"s": ["Qmlhc0FkZA==", "UmVsdQ=="]}}, "num_args": {"i": "1"}, "strides": {"list": {"i": ["1", "1", "1", "1"]}}, "TArgs": {"list": {"type": ["DT_FLOAT"]}}, "padding": {"s": "U0FNRQ=="}, "use_cudnn_on_gpu": {"b": true}, "leakyrelu_alpha": {"f": 0.2}, "epsilon": {"f": 0.0}, "T": {"type": "DT_FLOAT"}, "explicit_paddings": {"list": {}}, "dilations": {"list": {"i": ["1", "1", "1", "1"]}}}}, {"name": "StatefulPartitionedCall/full_gaze_inference_model_1/cnn_encoder_1/depthwise_conv2d_6_1/depthwise", "op": "FusedDepthwiseConv2dNative", "input": ["StatefulPartitionedCall/full_gaze_inference_model_1/cnn_encoder_1/activation_5_1/Relu", "StatefulPartitionedCall/full_gaze_inference_model_1/cnn_encoder_1/depthwise_conv2d_6_1/depthwise/ReadVariableOp", "StatefulPartitionedCall/full_gaze_inference_model_1/cnn_encoder_1/depthwise_conv2d_6_1/Squeeze"], "attr": {"padding": {"s": "U0FNRQ=="}, "_input_shapes": {"list": {"shape": [{"dim": [{"size": "-3"}, {"size": "-15"}, {"size": "-16"}, {"size": "24"}]}, {"dim": [{"size": "5"}, {"size": "5"}, {"size": "24"}, {"size": "1"}]}]}}, "data_format": {"s": "TkhXQw=="}, "strides": {"list": {"i": ["1", "1", "1", "1"]}}, "num_args": {"i": "1"}, "fused_ops": {"list": {"s": ["Qmlhc0FkZA=="]}}, "T": {"type": "DT_FLOAT"}, "explicit_paddings": {"list": {}}, "dilations": {"list": {"i": ["1", "1", "1", "1"]}}}}, {"name": "StatefulPartitionedCall/full_gaze_inference_model_1/cnn_encoder_1/conv2d_8_1/BiasAdd", "op": "_FusedConv2D", "input": ["StatefulPartitionedCall/full_gaze_inference_model_1/cnn_encoder_1/depthwise_conv2d_6_1/depthwise", "StatefulPartitionedCall/full_gaze_inference_model_1/cnn_encoder_1/conv2d_8_1/convolution/ReadVariableOp", "StatefulPartitionedCall/full_gaze_inference_model_1/cnn_encoder_1/conv2d_8_1/Squeeze"], "device": "/device:CPU:0", "attr": {"num_host_args": {"i": "0"}, "_input_shapes": {"list": {"shape": [{"dim": [{"size": "-3"}, {"size": "-15"}, {"size": "-16"}, {"size": "24"}]}, {"dim": [{"size": "1"}, {"size": "1"}, {"size": "24"}, {"size": "96"}]}]}}, "filter_format": {"s": "SFdJTw=="}, "data_format": {"s": "TkhXQw=="}, "fused_ops": {"list": {"s": ["Qmlhc0FkZA=="]}}, "num_args": {"i": "1"}, "strides": {"list": {"i": ["1", "1", "1", "1"]}}, "TArgs": {"list": {"type": ["DT_FLOAT"]}}, "padding": {"s": "U0FNRQ=="}, "use_cudnn_on_gpu": {"b": true}, "leakyrelu_alpha": {"f": 0.2}, "epsilon": {"f": 0.0}, "T": {"type": "DT_FLOAT"}, "explicit_paddings": {"list": {}}, "dilations": {"list": {"i": ["1", "1", "1", "1"]}}}}, {"name": "StatefulPartitionedCall/full_gaze_inference_model_1/cnn_encoder_1/add_5_1/Add", "op": "AddV2", "input": ["StatefulPartitionedCall/full_gaze_inference_model_1/cnn_encoder_1/conv2d_8_1/BiasAdd", "StatefulPartitionedCall/full_gaze_inference_model_1/cnn_encoder_1/conv2d_9_1/BiasAdd"], "attr": {"T": {"type": "DT_FLOAT"}}}, {"name": "StatefulPartitionedCall/full_gaze_inference_model_1/cnn_encoder_1/activation_6_1/Relu", "op": "Relu", "input": ["StatefulPartitionedCall/full_gaze_inference_model_1/cnn_encoder_1/add_5_1/Add"], "attr": {"T": {"type": "DT_FLOAT"}}}, {"name": "StatefulPartitionedCall/full_gaze_inference_model_1/cnn_encoder_1/depthwise_conv2d_7_1/depthwise", "op": "FusedDepthwiseConv2dNative", "input": ["StatefulPartitionedCall/full_gaze_inference_model_1/cnn_encoder_1/activation_6_1/Relu", "StatefulPartitionedCall/full_gaze_inference_model_1/cnn_encoder_1/depthwise_conv2d_7_1/depthwise/ReadVariableOp", "StatefulPartitionedCall/full_gaze_inference_model_1/cnn_encoder_1/depthwise_conv2d_7_1/Squeeze"], "attr": {"padding": {"s": "U0FNRQ=="}, "data_format": {"s": "TkhXQw=="}, "_input_shapes": {"list": {"shape": [{"dim": [{"size": "-3"}, {"size": "-19"}, {"size": "-20"}, {"size": "96"}]}, {"dim": [{"size": "5"}, {"size": "5"}, {"size": "96"}, {"size": "1"}]}]}}, "strides": {"list": {"i": ["1", "1", "1", "1"]}}, "num_args": {"i": "1"}, "fused_ops": {"list": {"s": ["Qmlhc0FkZA=="]}}, "T": {"type": "DT_FLOAT"}, "explicit_paddings": {"list": {}}, "dilations": {"list": {"i": ["1", "1", "1", "1"]}}}}, {"name": "StatefulPartitionedCall/full_gaze_inference_model_1/cnn_encoder_1/activation_7_1/Relu", "op": "_FusedConv2D", "input": ["StatefulPartitionedCall/full_gaze_inference_model_1/cnn_encoder_1/depthwise_conv2d_7_1/depthwise", "StatefulPartitionedCall/full_gaze_inference_model_1/cnn_encoder_1/conv2d_10_1/convolution/ReadVariableOp", "StatefulPartitionedCall/full_gaze_inference_model_1/cnn_encoder_1/conv2d_10_1/Squeeze"], "device": "/device:CPU:0", "attr": {"num_host_args": {"i": "0"}, "data_format": {"s": "TkhXQw=="}, "filter_format": {"s": "SFdJTw=="}, "_input_shapes": {"list": {"shape": [{"dim": [{"size": "-3"}, {"size": "-19"}, {"size": "-20"}, {"size": "96"}]}, {"dim": [{"size": "1"}, {"size": "1"}, {"size": "96"}, {"size": "24"}]}]}}, "strides": {"list": {"i": ["1", "1", "1", "1"]}}, "num_args": {"i": "1"}, "fused_ops": {"list": {"s": ["Qmlhc0FkZA==", "UmVsdQ=="]}}, "TArgs": {"list": {"type": ["DT_FLOAT"]}}, "padding": {"s": "U0FNRQ=="}, "use_cudnn_on_gpu": {"b": true}, "leakyrelu_alpha": {"f": 0.2}, "epsilon": {"f": 0.0}, "T": {"type": "DT_FLOAT"}, "explicit_paddings": {"list": {}}, "dilations": {"list": {"i": ["1", "1", "1", "1"]}}}}, {"name": "StatefulPartitionedCall/full_gaze_inference_model_1/cnn_encoder_1/depthwise_conv2d_8_1/depthwise", "op": "FusedDepthwiseConv2dNative", "input": ["StatefulPartitionedCall/full_gaze_inference_model_1/cnn_encoder_1/activation_7_1/Relu", "StatefulPartitionedCall/full_gaze_inference_model_1/cnn_encoder_1/depthwise_conv2d_8_1/depthwise/ReadVariableOp", "StatefulPartitionedCall/full_gaze_inference_model_1/cnn_encoder_1/depthwise_conv2d_8_1/Squeeze"], "attr": {"padding": {"s": "U0FNRQ=="}, "_input_shapes": {"list": {"shape": [{"dim": [{"size": "-3"}, {"size": "-19"}, {"size": "-20"}, {"size": "24"}]}, {"dim": [{"size": "5"}, {"size": "5"}, {"size": "24"}, {"size": "1"}]}]}}, "data_format": {"s": "TkhXQw=="}, "strides": {"list": {"i": ["1", "1", "1", "1"]}}, "num_args": {"i": "1"}, "fused_ops": {"list": {"s": ["Qmlhc0FkZA=="]}}, "T": {"type": "DT_FLOAT"}, "explicit_paddings": {"list": {}}, "dilations": {"list": {"i": ["1", "1", "1", "1"]}}}}, {"name": "StatefulPartitionedCall/full_gaze_inference_model_1/cnn_encoder_1/conv2d_11_1/BiasAdd", "op": "_FusedConv2D", "input": ["StatefulPartitionedCall/full_gaze_inference_model_1/cnn_encoder_1/depthwise_conv2d_8_1/depthwise", "StatefulPartitionedCall/full_gaze_inference_model_1/cnn_encoder_1/conv2d_11_1/convolution/ReadVariableOp", "StatefulPartitionedCall/full_gaze_inference_model_1/cnn_encoder_1/conv2d_11_1/Squeeze"], "device": "/device:CPU:0", "attr": {"num_host_args": {"i": "0"}, "data_format": {"s": "TkhXQw=="}, "filter_format": {"s": "SFdJTw=="}, "_input_shapes": {"list": {"shape": [{"dim": [{"size": "-3"}, {"size": "-19"}, {"size": "-20"}, {"size": "24"}]}, {"dim": [{"size": "1"}, {"size": "1"}, {"size": "24"}, {"size": "96"}]}]}}, "fused_ops": {"list": {"s": ["Qmlhc0FkZA=="]}}, "num_args": {"i": "1"}, "strides": {"list": {"i": ["1", "1", "1", "1"]}}, "TArgs": {"list": {"type": ["DT_FLOAT"]}}, "padding": {"s": "U0FNRQ=="}, "use_cudnn_on_gpu": {"b": true}, "leakyrelu_alpha": {"f": 0.2}, "epsilon": {"f": 0.0}, "T": {"type": "DT_FLOAT"}, "explicit_paddings": {"list": {}}, "dilations": {"list": {"i": ["1", "1", "1", "1"]}}}}, {"name": "StatefulPartitionedCall/full_gaze_inference_model_1/cnn_encoder_1/add_6_1/Add", "op": "AddV2", "input": ["StatefulPartitionedCall/full_gaze_inference_model_1/cnn_encoder_1/conv2d_11_1/BiasAdd", "StatefulPartitionedCall/full_gaze_inference_model_1/cnn_encoder_1/activation_6_1/Relu"], "attr": {"T": {"type": "DT_FLOAT"}}}, {"name": "StatefulPartitionedCall/full_gaze_inference_model_1/cnn_encoder_1/activation_8_1/Relu", "op": "Relu", "input": ["StatefulPartitionedCall/full_gaze_inference_model_1/cnn_encoder_1/add_6_1/Add"], "attr": {"T": {"type": "DT_FLOAT"}}}, {"name": "StatefulPartitionedCall/full_gaze_inference_model_1/cnn_encoder_1/depthwise_conv2d_9_1/depthwise", "op": "FusedDepthwiseConv2dNative", "input": ["StatefulPartitionedCall/full_gaze_inference_model_1/cnn_encoder_1/activation_8_1/Relu", "StatefulPartitionedCall/full_gaze_inference_model_1/cnn_encoder_1/depthwise_conv2d_9_1/depthwise/ReadVariableOp", "StatefulPartitionedCall/full_gaze_inference_model_1/cnn_encoder_1/depthwise_conv2d_9_1/Squeeze"], "attr": {"padding": {"s": "U0FNRQ=="}, "data_format": {"s": "TkhXQw=="}, "_input_shapes": {"list": {"shape": [{"dim": [{"size": "-3"}, {"size": "-19"}, {"size": "-20"}, {"size": "96"}]}, {"dim": [{"size": "5"}, {"size": "5"}, {"size": "96"}, {"size": "1"}]}]}}, "strides": {"list": {"i": ["1", "1", "1", "1"]}}, "num_args": {"i": "1"}, "fused_ops": {"list": {"s": ["Qmlhc0FkZA=="]}}, "T": {"type": "DT_FLOAT"}, "explicit_paddings": {"list": {}}, "dilations": {"list": {"i": ["1", "1", "1", "1"]}}}}, {"name": "StatefulPartitionedCall/full_gaze_inference_model_1/cnn_encoder_1/activation_9_1/Relu", "op": "_FusedConv2D", "input": ["StatefulPartitionedCall/full_gaze_inference_model_1/cnn_encoder_1/depthwise_conv2d_9_1/depthwise", "StatefulPartitionedCall/full_gaze_inference_model_1/cnn_encoder_1/conv2d_12_1/convolution/ReadVariableOp", "StatefulPartitionedCall/full_gaze_inference_model_1/cnn_encoder_1/conv2d_12_1/Squeeze"], "device": "/device:CPU:0", "attr": {"num_host_args": {"i": "0"}, "data_format": {"s": "TkhXQw=="}, "filter_format": {"s": "SFdJTw=="}, "_input_shapes": {"list": {"shape": [{"dim": [{"size": "-3"}, {"size": "-19"}, {"size": "-20"}, {"size": "96"}]}, {"dim": [{"size": "1"}, {"size": "1"}, {"size": "96"}, {"size": "24"}]}]}}, "strides": {"list": {"i": ["1", "1", "1", "1"]}}, "num_args": {"i": "1"}, "fused_ops": {"list": {"s": ["Qmlhc0FkZA==", "UmVsdQ=="]}}, "TArgs": {"list": {"type": ["DT_FLOAT"]}}, "padding": {"s": "U0FNRQ=="}, "use_cudnn_on_gpu": {"b": true}, "leakyrelu_alpha": {"f": 0.2}, "epsilon": {"f": 0.0}, "T": {"type": "DT_FLOAT"}, "explicit_paddings": {"list": {}}, "dilations": {"list": {"i": ["1", "1", "1", "1"]}}}}, {"name": "StatefulPartitionedCall/full_gaze_inference_model_1/cnn_encoder_1/depthwise_conv2d_10_1/depthwise", "op": "FusedDepthwiseConv2dNative", "input": ["StatefulPartitionedCall/full_gaze_inference_model_1/cnn_encoder_1/activation_9_1/Relu", "StatefulPartitionedCall/full_gaze_inference_model_1/cnn_encoder_1/depthwise_conv2d_10_1/depthwise/ReadVariableOp", "StatefulPartitionedCall/full_gaze_inference_model_1/cnn_encoder_1/depthwise_conv2d_10_1/Squeeze"], "attr": {"padding": {"s": "U0FNRQ=="}, "_input_shapes": {"list": {"shape": [{"dim": [{"size": "-3"}, {"size": "-19"}, {"size": "-20"}, {"size": "24"}]}, {"dim": [{"size": "5"}, {"size": "5"}, {"size": "24"}, {"size": "1"}]}]}}, "data_format": {"s": "TkhXQw=="}, "strides": {"list": {"i": ["1", "1", "1", "1"]}}, "num_args": {"i": "1"}, "fused_ops": {"list": {"s": ["Qmlhc0FkZA=="]}}, "T": {"type": "DT_FLOAT"}, "explicit_paddings": {"list": {}}, "dilations": {"list": {"i": ["1", "1", "1", "1"]}}}}, {"name": "StatefulPartitionedCall/full_gaze_inference_model_1/cnn_encoder_1/conv2d_13_1/BiasAdd", "op": "_FusedConv2D", "input": ["StatefulPartitionedCall/full_gaze_inference_model_1/cnn_encoder_1/depthwise_conv2d_10_1/depthwise", "StatefulPartitionedCall/full_gaze_inference_model_1/cnn_encoder_1/conv2d_13_1/convolution/ReadVariableOp", "StatefulPartitionedCall/full_gaze_inference_model_1/cnn_encoder_1/conv2d_13_1/Squeeze"], "device": "/device:CPU:0", "attr": {"num_host_args": {"i": "0"}, "data_format": {"s": "TkhXQw=="}, "filter_format": {"s": "SFdJTw=="}, "_input_shapes": {"list": {"shape": [{"dim": [{"size": "-3"}, {"size": "-19"}, {"size": "-20"}, {"size": "24"}]}, {"dim": [{"size": "1"}, {"size": "1"}, {"size": "24"}, {"size": "96"}]}]}}, "fused_ops": {"list": {"s": ["Qmlhc0FkZA=="]}}, "num_args": {"i": "1"}, "strides": {"list": {"i": ["1", "1", "1", "1"]}}, "TArgs": {"list": {"type": ["DT_FLOAT"]}}, "padding": {"s": "U0FNRQ=="}, "use_cudnn_on_gpu": {"b": true}, "leakyrelu_alpha": {"f": 0.2}, "epsilon": {"f": 0.0}, "T": {"type": "DT_FLOAT"}, "explicit_paddings": {"list": {}}, "dilations": {"list": {"i": ["1", "1", "1", "1"]}}}}, {"name": "StatefulPartitionedCall/full_gaze_inference_model_1/cnn_encoder_1/add_7_1/Add", "op": "AddV2", "input": ["StatefulPartitionedCall/full_gaze_inference_model_1/cnn_encoder_1/conv2d_13_1/BiasAdd", "StatefulPartitionedCall/full_gaze_inference_model_1/cnn_encoder_1/activation_8_1/Relu"], "attr": {"T": {"type": "DT_FLOAT"}}}, {"name": "StatefulPartitionedCall/full_gaze_inference_model_1/cnn_encoder_1/activation_10_1/Relu", "op": "Relu", "input": ["StatefulPartitionedCall/full_gaze_inference_model_1/cnn_encoder_1/add_7_1/Add"], "attr": {"T": {"type": "DT_FLOAT"}}}, {"name": "StatefulPartitionedCall/full_gaze_inference_model_1/cnn_encoder_1/depthwise_conv2d_11_1/depthwise", "op": "FusedDepthwiseConv2dNative", "input": ["StatefulPartitionedCall/full_gaze_inference_model_1/cnn_encoder_1/activation_10_1/Relu", "StatefulPartitionedCall/full_gaze_inference_model_1/cnn_encoder_1/depthwise_conv2d_11_1/depthwise/ReadVariableOp", "StatefulPartitionedCall/full_gaze_inference_model_1/cnn_encoder_1/depthwise_conv2d_11_1/Squeeze"], "attr": {"padding": {"s": "U0FNRQ=="}, "_input_shapes": {"list": {"shape": [{"dim": [{"size": "-3"}, {"size": "-19"}, {"size": "-20"}, {"size": "96"}]}, {"dim": [{"size": "5"}, {"size": "5"}, {"size": "96"}, {"size": "1"}]}]}}, "data_format": {"s": "TkhXQw=="}, "strides": {"list": {"i": ["1", "2", "2", "1"]}}, "num_args": {"i": "1"}, "fused_ops": {"list": {"s": ["Qmlhc0FkZA=="]}}, "T": {"type": "DT_FLOAT"}, "explicit_paddings": {"list": {}}, "dilations": {"list": {"i": ["1", "1", "1", "1"]}}}}, {"name": "StatefulPartitionedCall/full_gaze_inference_model_1/cnn_encoder_1/max_pooling2d_2_1/MaxPool2d", "op": "MaxPool", "input": ["StatefulPartitionedCall/full_gaze_inference_model_1/cnn_encoder_1/activation_10_1/Relu"], "attr": {"padding": {"s": "VkFMSUQ="}, "data_format": {"s": "TkhXQw=="}, "T": {"type": "DT_FLOAT"}, "explicit_paddings": {"list": {}}, "ksize": {"list": {"i": ["1", "2", "2", "1"]}}, "strides": {"list": {"i": ["1", "2", "2", "1"]}}}}, {"name": "StatefulPartitionedCall/full_gaze_inference_model_1/cnn_encoder_1/conv2d_16_1/BiasAdd", "op": "_FusedConv2D", "input": ["StatefulPartitionedCall/full_gaze_inference_model_1/cnn_encoder_1/max_pooling2d_2_1/MaxPool2d", "StatefulPartitionedCall/full_gaze_inference_model_1/cnn_encoder_1/conv2d_16_1/convolution/ReadVariableOp", "StatefulPartitionedCall/full_gaze_inference_model_1/cnn_encoder_1/conv2d_16_1/Squeeze"], "device": "/device:CPU:0", "attr": {"num_host_args": {"i": "0"}, "_input_shapes": {"list": {"shape": [{"dim": [{"size": "-3"}, {"size": "-23"}, {"size": "-24"}, {"size": "96"}]}, {"dim": [{"size": "1"}, {"size": "1"}, {"size": "96"}, {"size": "96"}]}]}}, "filter_format": {"s": "SFdJTw=="}, "data_format": {"s": "TkhXQw=="}, "strides": {"list": {"i": ["1", "1", "1", "1"]}}, "num_args": {"i": "1"}, "fused_ops": {"list": {"s": ["Qmlhc0FkZA=="]}}, "TArgs": {"list": {"type": ["DT_FLOAT"]}}, "padding": {"s": "U0FNRQ=="}, "use_cudnn_on_gpu": {"b": true}, "leakyrelu_alpha": {"f": 0.2}, "epsilon": {"f": 0.0}, "T": {"type": "DT_FLOAT"}, "explicit_paddings": {"list": {}}, "dilations": {"list": {"i": ["1", "1", "1", "1"]}}}}, {"name": "StatefulPartitionedCall/full_gaze_inference_model_1/cnn_encoder_1/activation_11_1/Relu", "op": "_FusedConv2D", "input": ["StatefulPartitionedCall/full_gaze_inference_model_1/cnn_encoder_1/depthwise_conv2d_11_1/depthwise", "StatefulPartitionedCall/full_gaze_inference_model_1/cnn_encoder_1/conv2d_14_1/convolution/ReadVariableOp", "StatefulPartitionedCall/full_gaze_inference_model_1/cnn_encoder_1/conv2d_14_1/Squeeze"], "device": "/device:CPU:0", "attr": {"num_host_args": {"i": "0"}, "data_format": {"s": "TkhXQw=="}, "filter_format": {"s": "SFdJTw=="}, "_input_shapes": {"list": {"shape": [{"dim": [{"size": "-3"}, {"size": "-21"}, {"size": "-22"}, {"size": "96"}]}, {"dim": [{"size": "1"}, {"size": "1"}, {"size": "96"}, {"size": "24"}]}]}}, "fused_ops": {"list": {"s": ["Qmlhc0FkZA==", "UmVsdQ=="]}}, "num_args": {"i": "1"}, "strides": {"list": {"i": ["1", "1", "1", "1"]}}, "TArgs": {"list": {"type": ["DT_FLOAT"]}}, "padding": {"s": "U0FNRQ=="}, "use_cudnn_on_gpu": {"b": true}, "leakyrelu_alpha": {"f": 0.2}, "epsilon": {"f": 0.0}, "T": {"type": "DT_FLOAT"}, "explicit_paddings": {"list": {}}, "dilations": {"list": {"i": ["1", "1", "1", "1"]}}}}, {"name": "StatefulPartitionedCall/full_gaze_inference_model_1/cnn_encoder_1/depthwise_conv2d_12_1/depthwise", "op": "FusedDepthwiseConv2dNative", "input": ["StatefulPartitionedCall/full_gaze_inference_model_1/cnn_encoder_1/activation_11_1/Relu", "StatefulPartitionedCall/full_gaze_inference_model_1/cnn_encoder_1/depthwise_conv2d_12_1/depthwise/ReadVariableOp", "StatefulPartitionedCall/full_gaze_inference_model_1/cnn_encoder_1/depthwise_conv2d_12_1/Squeeze"], "attr": {"padding": {"s": "U0FNRQ=="}, "_input_shapes": {"list": {"shape": [{"dim": [{"size": "-3"}, {"size": "-21"}, {"size": "-22"}, {"size": "24"}]}, {"dim": [{"size": "5"}, {"size": "5"}, {"size": "24"}, {"size": "1"}]}]}}, "data_format": {"s": "TkhXQw=="}, "strides": {"list": {"i": ["1", "1", "1", "1"]}}, "num_args": {"i": "1"}, "fused_ops": {"list": {"s": ["Qmlhc0FkZA=="]}}, "T": {"type": "DT_FLOAT"}, "explicit_paddings": {"list": {}}, "dilations": {"list": {"i": ["1", "1", "1", "1"]}}}}, {"name": "StatefulPartitionedCall/full_gaze_inference_model_1/cnn_encoder_1/conv2d_15_1/BiasAdd", "op": "_FusedConv2D", "input": ["StatefulPartitionedCall/full_gaze_inference_model_1/cnn_encoder_1/depthwise_conv2d_12_1/depthwise", "StatefulPartitionedCall/full_gaze_inference_model_1/cnn_encoder_1/conv2d_15_1/convolution/ReadVariableOp", "StatefulPartitionedCall/full_gaze_inference_model_1/cnn_encoder_1/conv2d_15_1/Squeeze"], "device": "/device:CPU:0", "attr": {"num_host_args": {"i": "0"}, "data_format": {"s": "TkhXQw=="}, "filter_format": {"s": "SFdJTw=="}, "_input_shapes": {"list": {"shape": [{"dim": [{"size": "-3"}, {"size": "-21"}, {"size": "-22"}, {"size": "24"}]}, {"dim": [{"size": "1"}, {"size": "1"}, {"size": "24"}, {"size": "96"}]}]}}, "fused_ops": {"list": {"s": ["Qmlhc0FkZA=="]}}, "num_args": {"i": "1"}, "strides": {"list": {"i": ["1", "1", "1", "1"]}}, "TArgs": {"list": {"type": ["DT_FLOAT"]}}, "padding": {"s": "U0FNRQ=="}, "use_cudnn_on_gpu": {"b": true}, "leakyrelu_alpha": {"f": 0.2}, "epsilon": {"f": 0.0}, "T": {"type": "DT_FLOAT"}, "explicit_paddings": {"list": {}}, "dilations": {"list": {"i": ["1", "1", "1", "1"]}}}}, {"name": "StatefulPartitionedCall/full_gaze_inference_model_1/cnn_encoder_1/add_8_1/Add", "op": "AddV2", "input": ["StatefulPartitionedCall/full_gaze_inference_model_1/cnn_encoder_1/conv2d_15_1/BiasAdd", "StatefulPartitionedCall/full_gaze_inference_model_1/cnn_encoder_1/conv2d_16_1/BiasAdd"], "attr": {"T": {"type": "DT_FLOAT"}}}, {"name": "StatefulPartitionedCall/full_gaze_inference_model_1/cnn_encoder_1/activation_12_1/Relu", "op": "Relu", "input": ["StatefulPartitionedCall/full_gaze_inference_model_1/cnn_encoder_1/add_8_1/Add"], "attr": {"T": {"type": "DT_FLOAT"}}}, {"name": "StatefulPartitionedCall/full_gaze_inference_model_1/cnn_encoder_1/depthwise_conv2d_13_1/depthwise", "op": "FusedDepthwiseConv2dNative", "input": ["StatefulPartitionedCall/full_gaze_inference_model_1/cnn_encoder_1/activation_12_1/Relu", "StatefulPartitionedCall/full_gaze_inference_model_1/cnn_encoder_1/depthwise_conv2d_13_1/depthwise/ReadVariableOp", "StatefulPartitionedCall/full_gaze_inference_model_1/cnn_encoder_1/depthwise_conv2d_13_1/Squeeze"], "attr": {"padding": {"s": "U0FNRQ=="}, "data_format": {"s": "TkhXQw=="}, "_input_shapes": {"list": {"shape": [{"dim": [{"size": "-3"}, {"size": "-25"}, {"size": "-26"}, {"size": "96"}]}, {"dim": [{"size": "5"}, {"size": "5"}, {"size": "96"}, {"size": "1"}]}]}}, "strides": {"list": {"i": ["1", "1", "1", "1"]}}, "num_args": {"i": "1"}, "fused_ops": {"list": {"s": ["Qmlhc0FkZA=="]}}, "T": {"type": "DT_FLOAT"}, "explicit_paddings": {"list": {}}, "dilations": {"list": {"i": ["1", "1", "1", "1"]}}}}, {"name": "StatefulPartitionedCall/full_gaze_inference_model_1/cnn_encoder_1/activation_13_1/Relu", "op": "_FusedConv2D", "input": ["StatefulPartitionedCall/full_gaze_inference_model_1/cnn_encoder_1/depthwise_conv2d_13_1/depthwise", "StatefulPartitionedCall/full_gaze_inference_model_1/cnn_encoder_1/conv2d_17_1/convolution/ReadVariableOp", "StatefulPartitionedCall/full_gaze_inference_model_1/cnn_encoder_1/conv2d_17_1/Squeeze"], "device": "/device:CPU:0", "attr": {"num_host_args": {"i": "0"}, "data_format": {"s": "TkhXQw=="}, "filter_format": {"s": "SFdJTw=="}, "_input_shapes": {"list": {"shape": [{"dim": [{"size": "-3"}, {"size": "-25"}, {"size": "-26"}, {"size": "96"}]}, {"dim": [{"size": "1"}, {"size": "1"}, {"size": "96"}, {"size": "24"}]}]}}, "strides": {"list": {"i": ["1", "1", "1", "1"]}}, "num_args": {"i": "1"}, "fused_ops": {"list": {"s": ["Qmlhc0FkZA==", "UmVsdQ=="]}}, "TArgs": {"list": {"type": ["DT_FLOAT"]}}, "padding": {"s": "U0FNRQ=="}, "use_cudnn_on_gpu": {"b": true}, "leakyrelu_alpha": {"f": 0.2}, "epsilon": {"f": 0.0}, "T": {"type": "DT_FLOAT"}, "explicit_paddings": {"list": {}}, "dilations": {"list": {"i": ["1", "1", "1", "1"]}}}}, {"name": "StatefulPartitionedCall/full_gaze_inference_model_1/cnn_encoder_1/depthwise_conv2d_14_1/depthwise", "op": "FusedDepthwiseConv2dNative", "input": ["StatefulPartitionedCall/full_gaze_inference_model_1/cnn_encoder_1/activation_13_1/Relu", "StatefulPartitionedCall/full_gaze_inference_model_1/cnn_encoder_1/depthwise_conv2d_14_1/depthwise/ReadVariableOp", "StatefulPartitionedCall/full_gaze_inference_model_1/cnn_encoder_1/depthwise_conv2d_14_1/Squeeze"], "attr": {"padding": {"s": "U0FNRQ=="}, "data_format": {"s": "TkhXQw=="}, "_input_shapes": {"list": {"shape": [{"dim": [{"size": "-3"}, {"size": "-25"}, {"size": "-26"}, {"size": "24"}]}, {"dim": [{"size": "5"}, {"size": "5"}, {"size": "24"}, {"size": "1"}]}]}}, "strides": {"list": {"i": ["1", "1", "1", "1"]}}, "num_args": {"i": "1"}, "fused_ops": {"list": {"s": ["Qmlhc0FkZA=="]}}, "T": {"type": "DT_FLOAT"}, "explicit_paddings": {"list": {}}, "dilations": {"list": {"i": ["1", "1", "1", "1"]}}}}, {"name": "StatefulPartitionedCall/full_gaze_inference_model_1/cnn_encoder_1/conv2d_18_1/BiasAdd", "op": "_FusedConv2D", "input": ["StatefulPartitionedCall/full_gaze_inference_model_1/cnn_encoder_1/depthwise_conv2d_14_1/depthwise", "StatefulPartitionedCall/full_gaze_inference_model_1/cnn_encoder_1/conv2d_18_1/convolution/ReadVariableOp", "StatefulPartitionedCall/full_gaze_inference_model_1/cnn_encoder_1/conv2d_18_1/Squeeze"], "device": "/device:CPU:0", "attr": {"num_host_args": {"i": "0"}, "data_format": {"s": "TkhXQw=="}, "filter_format": {"s": "SFdJTw=="}, "_input_shapes": {"list": {"shape": [{"dim": [{"size": "-3"}, {"size": "-25"}, {"size": "-26"}, {"size": "24"}]}, {"dim": [{"size": "1"}, {"size": "1"}, {"size": "24"}, {"size": "96"}]}]}}, "strides": {"list": {"i": ["1", "1", "1", "1"]}}, "num_args": {"i": "1"}, "fused_ops": {"list": {"s": ["Qmlhc0FkZA=="]}}, "TArgs": {"list": {"type": ["DT_FLOAT"]}}, "padding": {"s": "U0FNRQ=="}, "use_cudnn_on_gpu": {"b": true}, "leakyrelu_alpha": {"f": 0.2}, "epsilon": {"f": 0.0}, "T": {"type": "DT_FLOAT"}, "explicit_paddings": {"list": {}}, "dilations": {"list": {"i": ["1", "1", "1", "1"]}}}}, {"name": "StatefulPartitionedCall/full_gaze_inference_model_1/cnn_encoder_1/add_9_1/Add", "op": "AddV2", "input": ["StatefulPartitionedCall/full_gaze_inference_model_1/cnn_encoder_1/conv2d_18_1/BiasAdd", "StatefulPartitionedCall/full_gaze_inference_model_1/cnn_encoder_1/activation_12_1/Relu"], "attr": {"T": {"type": "DT_FLOAT"}}}, {"name": "StatefulPartitionedCall/full_gaze_inference_model_1/cnn_encoder_1/activation_14_1/Relu", "op": "Relu", "input": ["StatefulPartitionedCall/full_gaze_inference_model_1/cnn_encoder_1/add_9_1/Add"], "attr": {"T": {"type": "DT_FLOAT"}}}, {"name": "StatefulPartitionedCall/full_gaze_inference_model_1/cnn_encoder_1/depthwise_conv2d_15_1/depthwise", "op": "FusedDepthwiseConv2dNative", "input": ["StatefulPartitionedCall/full_gaze_inference_model_1/cnn_encoder_1/activation_14_1/Relu", "StatefulPartitionedCall/full_gaze_inference_model_1/cnn_encoder_1/depthwise_conv2d_15_1/depthwise/ReadVariableOp", "StatefulPartitionedCall/full_gaze_inference_model_1/cnn_encoder_1/depthwise_conv2d_15_1/Squeeze"], "attr": {"padding": {"s": "U0FNRQ=="}, "data_format": {"s": "TkhXQw=="}, "_input_shapes": {"list": {"shape": [{"dim": [{"size": "-3"}, {"size": "-25"}, {"size": "-26"}, {"size": "96"}]}, {"dim": [{"size": "5"}, {"size": "5"}, {"size": "96"}, {"size": "1"}]}]}}, "strides": {"list": {"i": ["1", "1", "1", "1"]}}, "num_args": {"i": "1"}, "fused_ops": {"list": {"s": ["Qmlhc0FkZA=="]}}, "T": {"type": "DT_FLOAT"}, "explicit_paddings": {"list": {}}, "dilations": {"list": {"i": ["1", "1", "1", "1"]}}}}, {"name": "StatefulPartitionedCall/full_gaze_inference_model_1/cnn_encoder_1/activation_15_1/Relu", "op": "_FusedConv2D", "input": ["StatefulPartitionedCall/full_gaze_inference_model_1/cnn_encoder_1/depthwise_conv2d_15_1/depthwise", "StatefulPartitionedCall/full_gaze_inference_model_1/cnn_encoder_1/conv2d_19_1/convolution/ReadVariableOp", "StatefulPartitionedCall/full_gaze_inference_model_1/cnn_encoder_1/conv2d_19_1/Squeeze"], "device": "/device:CPU:0", "attr": {"num_host_args": {"i": "0"}, "_input_shapes": {"list": {"shape": [{"dim": [{"size": "-3"}, {"size": "-25"}, {"size": "-26"}, {"size": "96"}]}, {"dim": [{"size": "1"}, {"size": "1"}, {"size": "96"}, {"size": "24"}]}]}}, "filter_format": {"s": "SFdJTw=="}, "data_format": {"s": "TkhXQw=="}, "fused_ops": {"list": {"s": ["Qmlhc0FkZA==", "UmVsdQ=="]}}, "num_args": {"i": "1"}, "strides": {"list": {"i": ["1", "1", "1", "1"]}}, "TArgs": {"list": {"type": ["DT_FLOAT"]}}, "padding": {"s": "U0FNRQ=="}, "use_cudnn_on_gpu": {"b": true}, "leakyrelu_alpha": {"f": 0.2}, "epsilon": {"f": 0.0}, "T": {"type": "DT_FLOAT"}, "explicit_paddings": {"list": {}}, "dilations": {"list": {"i": ["1", "1", "1", "1"]}}}}, {"name": "StatefulPartitionedCall/full_gaze_inference_model_1/cnn_encoder_1/depthwise_conv2d_16_1/depthwise", "op": "FusedDepthwiseConv2dNative", "input": ["StatefulPartitionedCall/full_gaze_inference_model_1/cnn_encoder_1/activation_15_1/Relu", "StatefulPartitionedCall/full_gaze_inference_model_1/cnn_encoder_1/depthwise_conv2d_16_1/depthwise/ReadVariableOp", "StatefulPartitionedCall/full_gaze_inference_model_1/cnn_encoder_1/depthwise_conv2d_16_1/Squeeze"], "attr": {"padding": {"s": "U0FNRQ=="}, "_input_shapes": {"list": {"shape": [{"dim": [{"size": "-3"}, {"size": "-25"}, {"size": "-26"}, {"size": "24"}]}, {"dim": [{"size": "5"}, {"size": "5"}, {"size": "24"}, {"size": "1"}]}]}}, "data_format": {"s": "TkhXQw=="}, "strides": {"list": {"i": ["1", "1", "1", "1"]}}, "num_args": {"i": "1"}, "fused_ops": {"list": {"s": ["Qmlhc0FkZA=="]}}, "T": {"type": "DT_FLOAT"}, "explicit_paddings": {"list": {}}, "dilations": {"list": {"i": ["1", "1", "1", "1"]}}}}, {"name": "StatefulPartitionedCall/full_gaze_inference_model_1/cnn_encoder_1/conv2d_20_1/BiasAdd", "op": "_FusedConv2D", "input": ["StatefulPartitionedCall/full_gaze_inference_model_1/cnn_encoder_1/depthwise_conv2d_16_1/depthwise", "StatefulPartitionedCall/full_gaze_inference_model_1/cnn_encoder_1/conv2d_20_1/convolution/ReadVariableOp", "StatefulPartitionedCall/full_gaze_inference_model_1/cnn_encoder_1/conv2d_20_1/Squeeze"], "device": "/device:CPU:0", "attr": {"num_host_args": {"i": "0"}, "data_format": {"s": "TkhXQw=="}, "filter_format": {"s": "SFdJTw=="}, "_input_shapes": {"list": {"shape": [{"dim": [{"size": "-3"}, {"size": "-25"}, {"size": "-26"}, {"size": "24"}]}, {"dim": [{"size": "1"}, {"size": "1"}, {"size": "24"}, {"size": "96"}]}]}}, "fused_ops": {"list": {"s": ["Qmlhc0FkZA=="]}}, "num_args": {"i": "1"}, "strides": {"list": {"i": ["1", "1", "1", "1"]}}, "TArgs": {"list": {"type": ["DT_FLOAT"]}}, "padding": {"s": "U0FNRQ=="}, "use_cudnn_on_gpu": {"b": true}, "leakyrelu_alpha": {"f": 0.2}, "epsilon": {"f": 0.0}, "T": {"type": "DT_FLOAT"}, "explicit_paddings": {"list": {}}, "dilations": {"list": {"i": ["1", "1", "1", "1"]}}}}, {"name": "StatefulPartitionedCall/full_gaze_inference_model_1/cnn_encoder_1/add_10_1/Add", "op": "AddV2", "input": ["StatefulPartitionedCall/full_gaze_inference_model_1/cnn_encoder_1/conv2d_20_1/BiasAdd", "StatefulPartitionedCall/full_gaze_inference_model_1/cnn_encoder_1/activation_14_1/Relu"], "attr": {"T": {"type": "DT_FLOAT"}}}, {"name": "StatefulPartitionedCall/full_gaze_inference_model_1/cnn_encoder_1/activation_16_1/Relu", "op": "Relu", "input": ["StatefulPartitionedCall/full_gaze_inference_model_1/cnn_encoder_1/add_10_1/Add"], "attr": {"T": {"type": "DT_FLOAT"}}}, {"name": "StatefulPartitionedCall/full_gaze_inference_model_1/cnn_encoder_1/conv2d_21_1/Relu", "op": "_FusedConv2D", "input": ["StatefulPartitionedCall/full_gaze_inference_model_1/cnn_encoder_1/activation_16_1/Relu", "StatefulPartitionedCall/full_gaze_inference_model_1/cnn_encoder_1/conv2d_21_1/convolution/ReadVariableOp", "StatefulPartitionedCall/full_gaze_inference_model_1/cnn_encoder_1/conv2d_21_1/Squeeze"], "device": "/device:CPU:0", "attr": {"num_host_args": {"i": "0"}, "data_format": {"s": "TkhXQw=="}, "filter_format": {"s": "SFdJTw=="}, "_input_shapes": {"list": {"shape": [{"dim": [{"size": "-3"}, {"size": "-25"}, {"size": "-26"}, {"size": "96"}]}, {"dim": [{"size": "3"}, {"size": "3"}, {"size": "96"}, {"size": "64"}]}]}}, "strides": {"list": {"i": ["1", "2", "2", "1"]}}, "num_args": {"i": "1"}, "fused_ops": {"list": {"s": ["Qmlhc0FkZA==", "UmVsdQ=="]}}, "TArgs": {"list": {"type": ["DT_FLOAT"]}}, "padding": {"s": "U0FNRQ=="}, "use_cudnn_on_gpu": {"b": true}, "leakyrelu_alpha": {"f": 0.2}, "epsilon": {"f": 0.0}, "T": {"type": "DT_FLOAT"}, "explicit_paddings": {"list": {}}, "dilations": {"list": {"i": ["1", "1", "1", "1"]}}}}, {"name": "StatefulPartitionedCall/full_gaze_inference_model_1/cnn_encoder_1/batch_normalization_1/batchnorm/mul_1", "op": "Mul", "input": ["StatefulPartitionedCall/full_gaze_inference_model_1/cnn_encoder_1/conv2d_21_1/Relu", "StatefulPartitionedCall/full_gaze_inference_model_1/cnn_encoder_1/batch_normalization_1/batchnorm/mul"], "attr": {"T": {"type": "DT_FLOAT"}}}, {"name": "StatefulPartitionedCall/full_gaze_inference_model_1/cnn_encoder_1/batch_normalization_1/batchnorm/add_1", "op": "AddV2", "input": ["StatefulPartitionedCall/full_gaze_inference_model_1/cnn_encoder_1/batch_normalization_1/batchnorm/mul_1", "StatefulPartitionedCall/full_gaze_inference_model_1/cnn_encoder_1/batch_normalization_1/batchnorm/sub"], "attr": {"T": {"type": "DT_FLOAT"}}}, {"name": "StatefulPartitionedCall/full_gaze_inference_model_1/cnn_encoder_1/conv2d_22_1/Relu", "op": "_FusedConv2D", "input": ["StatefulPartitionedCall/full_gaze_inference_model_1/cnn_encoder_1/batch_normalization_1/batchnorm/add_1", "StatefulPartitionedCall/full_gaze_inference_model_1/cnn_encoder_1/conv2d_22_1/convolution/ReadVariableOp", "StatefulPartitionedCall/full_gaze_inference_model_1/cnn_encoder_1/conv2d_22_1/Squeeze"], "device": "/device:CPU:0", "attr": {"num_host_args": {"i": "0"}, "_input_shapes": {"list": {"shape": [{"dim": [{"size": "-3"}, {"size": "-27"}, {"size": "-28"}, {"size": "64"}]}, {"dim": [{"size": "3"}, {"size": "3"}, {"size": "64"}, {"size": "32"}]}]}}, "filter_format": {"s": "SFdJTw=="}, "data_format": {"s": "TkhXQw=="}, "strides": {"list": {"i": ["1", "2", "2", "1"]}}, "num_args": {"i": "1"}, "fused_ops": {"list": {"s": ["Qmlhc0FkZA==", "UmVsdQ=="]}}, "TArgs": {"list": {"type": ["DT_FLOAT"]}}, "padding": {"s": "U0FNRQ=="}, "use_cudnn_on_gpu": {"b": true}, "leakyrelu_alpha": {"f": 0.2}, "epsilon": {"f": 0.0}, "T": {"type": "DT_FLOAT"}, "explicit_paddings": {"list": {}}, "dilations": {"list": {"i": ["1", "1", "1", "1"]}}}}, {"name": "StatefulPartitionedCall/full_gaze_inference_model_1/cnn_encoder_1/batch_normalization_1_2/batchnorm/mul_1", "op": "Mul", "input": ["StatefulPartitionedCall/full_gaze_inference_model_1/cnn_encoder_1/conv2d_22_1/Relu", "StatefulPartitionedCall/full_gaze_inference_model_1/cnn_encoder_1/batch_normalization_1_2/batchnorm/mul"], "attr": {"T": {"type": "DT_FLOAT"}}}, {"name": "StatefulPartitionedCall/full_gaze_inference_model_1/cnn_encoder_1/batch_normalization_1_2/batchnorm/add_1", "op": "AddV2", "input": ["StatefulPartitionedCall/full_gaze_inference_model_1/cnn_encoder_1/batch_normalization_1_2/batchnorm/mul_1", "StatefulPartitionedCall/full_gaze_inference_model_1/cnn_encoder_1/batch_normalization_1_2/batchnorm/sub"], "attr": {"T": {"type": "DT_FLOAT"}}}, {"name": "StatefulPartitionedCall/full_gaze_inference_model_1/cnn_encoder_1/embedding_1/Reshape", "op": "Reshape", "input": ["StatefulPartitionedCall/full_gaze_inference_model_1/cnn_encoder_1/batch_normalization_1_2/batchnorm/add_1", "StatefulPartitionedCall/full_gaze_inference_model_1/cnn_encoder_1/embedding_1/Reshape/shape"], "attr": {"T": {"type": "DT_FLOAT"}, "Tshape": {"type": "DT_INT32"}}}, {"name": "StatefulPartitionedCall/full_gaze_inference_model_1/gaze_mlp_1/feature_concat_1/concat", "op": "ConcatV2", "input": ["StatefulPartitionedCall/full_gaze_inference_model_1/cnn_encoder_1/embedding_1/Reshape", "head_vector", "face_origin_3d", "StatefulPartitionedCall/full_gaze_inference_model_1/gaze_mlp_1/feature_concat_1/concat/axis"], "attr": {"N": {"i": "3"}, "T": {"type": "DT_FLOAT"}, "Tidx": {"type": "DT_INT32"}}}, {"name": "StatefulPartitionedCall/full_gaze_inference_model_1/gaze_mlp_1/dense_1/Relu", "op": "_FusedMatMul", "input": ["StatefulPartitionedCall/full_gaze_inference_model_1/gaze_mlp_1/feature_concat_1/concat", "StatefulPartitionedCall/full_gaze_inference_model_1/gaze_mlp_1/dense_1/Cast/ReadVariableOp", "StatefulPartitionedCall/full_gaze_inference_model_1/gaze_mlp_1/dense_1/BiasAdd/ReadVariableOp"], "device": "/device:CPU:0", "attr": {"transpose_a": {"b": false}, "_input_shapes": {"list": {"shape": [{"dim": [{"size": "-31"}, {"size": "518"}]}, {"dim": [{"size": "518"}, {"size": "16"}]}]}}, "transpose_b": {"b": false}, "fused_ops": {"list": {"s": ["Qmlhc0FkZA==", "UmVsdQ=="]}}, "leakyrelu_alpha": {"f": 0.2}, "num_args": {"i": "1"}, "epsilon": {"f": 0.0}, "T": {"type": "DT_FLOAT"}}}, {"name": "StatefulPartitionedCall/full_gaze_inference_model_1/gaze_mlp_1/dense_1_2/Relu", "op": "_FusedMatMul", "input": ["StatefulPartitionedCall/full_gaze_inference_model_1/gaze_mlp_1/dense_1/Relu", "StatefulPartitionedCall/full_gaze_inference_model_1/gaze_mlp_1/dense_1_2/Cast/ReadVariableOp", "StatefulPartitionedCall/full_gaze_inference_model_1/gaze_mlp_1/dense_1_2/BiasAdd/ReadVariableOp"], "device": "/device:CPU:0", "attr": {"transpose_a": {"b": false}, "_input_shapes": {"list": {"shape": [{"dim": [{"size": "-31"}, {"size": "16"}]}, {"dim": [{"size": "16"}, {"size": "16"}]}]}}, "transpose_b": {"b": false}, "fused_ops": {"list": {"s": ["Qmlhc0FkZA==", "UmVsdQ=="]}}, "leakyrelu_alpha": {"f": 0.2}, "num_args": {"i": "1"}, "epsilon": {"f": 0.0}, "T": {"type": "DT_FLOAT"}}}, {"name": "StatefulPartitionedCall/full_gaze_inference_model_1/gaze_mlp_1/gaze_output_1/BiasAdd", "op": "_FusedMatMul", "input": ["StatefulPartitionedCall/full_gaze_inference_model_1/gaze_mlp_1/dense_1_2/Relu", "StatefulPartitionedCall/full_gaze_inference_model_1/gaze_mlp_1/gaze_output_1/Cast/ReadVariableOp", "StatefulPartitionedCall/full_gaze_inference_model_1/gaze_mlp_1/gaze_output_1/BiasAdd/ReadVariableOp"], "device": "/device:CPU:0", "attr": {"transpose_a": {"b": false}, "_input_shapes": {"list": {"shape": [{"dim": [{"size": "-31"}, {"size": "16"}]}, {"dim": [{"size": "16"}, {"size": "2"}]}]}}, "transpose_b": {"b": false}, "fused_ops": {"list": {"s": ["Qmlhc0FkZA=="]}}, "num_args": {"i": "1"}, "leakyrelu_alpha": {"f": 0.2}, "epsilon": {"f": 0.0}, "T": {"type": "DT_FLOAT"}}}, {"name": "Identity", "op": "Identity", "input": ["StatefulPartitionedCall/full_gaze_inference_model_1/gaze_mlp_1/gaze_output_1/BiasAdd"], "attr": {"T": {"type": "DT_FLOAT"}}}], "library": {}, "versions": {"producer": 2129}}, "weightsManifest": [{"paths": ["group1-shard1of1.bin"], "weights": [{"name": "StatefulPartitionedCall/full_gaze_inference_model_1/cnn_encoder_1/depthwise_conv2d_15_1/depthwise/ReadVariableOp", "shape": [5, 5, 96, 1], "dtype": "float32"}, {"name": "StatefulPartitionedCall/full_gaze_inference_model_1/cnn_encoder_1/depthwise_conv2d_15_1/Squeeze", "shape": [96], "dtype": "float32"}, {"name": "StatefulPartitionedCall/full_gaze_inference_model_1/cnn_encoder_1/conv2d_19_1/convolution/ReadVariableOp", "shape": [1, 1, 96, 24], "dtype": "float32"}, {"name": "StatefulPartitionedCall/full_gaze_inference_model_1/cnn_encoder_1/conv2d_19_1/Squeeze", "shape": [24], "dtype": "float32"}, {"name": "StatefulPartitionedCall/full_gaze_inference_model_1/cnn_encoder_1/depthwise_conv2d_16_1/depthwise/ReadVariableOp", "shape": [5, 5, 24, 1], "dtype": "float32"}, {"name": "StatefulPartitionedCall/full_gaze_inference_model_1/cnn_encoder_1/depthwise_conv2d_16_1/Squeeze", "shape": [24], "dtype": "float32"}, {"name": "StatefulPartitionedCall/full_gaze_inference_model_1/cnn_encoder_1/conv2d_20_1/convolution/ReadVariableOp", "shape": [1, 1, 24, 96], "dtype": "float32"}, {"name": "StatefulPartitionedCall/full_gaze_inference_model_1/cnn_encoder_1/conv2d_20_1/Squeeze", "shape": [96], "dtype": "float32"}, {"name": "StatefulPartitionedCall/full_gaze_inference_model_1/cnn_encoder_1/depthwise_conv2d_13_1/depthwise/ReadVariableOp", "shape": [5, 5, 96, 1], "dtype": "float32"}, {"name": "StatefulPartitionedCall/full_gaze_inference_model_1/cnn_encoder_1/depthwise_conv2d_13_1/Squeeze", "shape": [96], "dtype": "float32"}, {"name": "StatefulPartitionedCall/full_gaze_inference_model_1/cnn_encoder_1/conv2d_17_1/convolution/ReadVariableOp", "shape": [1, 1, 96, 24], "dtype": "float32"}, {"name": "StatefulPartitionedCall/full_gaze_inference_model_1/cnn_encoder_1/conv2d_17_1/Squeeze", "shape": [24], "dtype": "float32"}, {"name": "StatefulPartitionedCall/full_gaze_inference_model_1/cnn_encoder_1/depthwise_conv2d_14_1/depthwise/ReadVariableOp", "shape": [5, 5, 24, 1], "dtype": "float32"}, {"name": "StatefulPartitionedCall/full_gaze_inference_model_1/cnn_encoder_1/depthwise_conv2d_14_1/Squeeze", "shape": [24], "dtype": "float32"}, {"name": "StatefulPartitionedCall/full_gaze_inference_model_1/cnn_encoder_1/conv2d_18_1/convolution/ReadVariableOp", "shape": [1, 1, 24, 96], "dtype": "float32"}, {"name": "StatefulPartitionedCall/full_gaze_inference_model_1/cnn_encoder_1/conv2d_18_1/Squeeze", "shape": [96], "dtype": "float32"}, {"name": "StatefulPartitionedCall/full_gaze_inference_model_1/cnn_encoder_1/depthwise_conv2d_11_1/depthwise/ReadVariableOp", "shape": [5, 5, 96, 1], "dtype": "float32"}, {"name": "StatefulPartitionedCall/full_gaze_inference_model_1/cnn_encoder_1/depthwise_conv2d_11_1/Squeeze", "shape": [96], "dtype": "float32"}, {"name": "StatefulPartitionedCall/full_gaze_inference_model_1/cnn_encoder_1/conv2d_14_1/convolution/ReadVariableOp", "shape": [1, 1, 96, 24], "dtype": "float32"}, {"name": "StatefulPartitionedCall/full_gaze_inference_model_1/cnn_encoder_1/conv2d_14_1/Squeeze", "shape": [24], "dtype": "float32"}, {"name": "StatefulPartitionedCall/full_gaze_inference_model_1/cnn_encoder_1/depthwise_conv2d_12_1/depthwise/ReadVariableOp", "shape": [5, 5, 24, 1], "dtype": "float32"}, {"name": "StatefulPartitionedCall/full_gaze_inference_model_1/cnn_encoder_1/depthwise_conv2d_12_1/Squeeze", "shape": [24], "dtype": "float32"}, {"name": "StatefulPartitionedCall/full_gaze_inference_model_1/cnn_encoder_1/conv2d_15_1/convolution/ReadVariableOp", "shape": [1, 1, 24, 96], "dtype": "float32"}, {"name": "StatefulPartitionedCall/full_gaze_inference_model_1/cnn_encoder_1/conv2d_15_1/Squeeze", "shape": [96], "dtype": "float32"}, {"name": "StatefulPartitionedCall/full_gaze_inference_model_1/cnn_encoder_1/depthwise_conv2d_9_1/depthwise/ReadVariableOp", "shape": [5, 5, 96, 1], "dtype": "float32"}, {"name": "StatefulPartitionedCall/full_gaze_inference_model_1/cnn_encoder_1/depthwise_conv2d_9_1/Squeeze", "shape": [96], "dtype": "float32"}, {"name": "StatefulPartitionedCall/full_gaze_inference_model_1/cnn_encoder_1/conv2d_12_1/convolution/ReadVariableOp", "shape": [1, 1, 96, 24], "dtype": "float32"}, {"name": "StatefulPartitionedCall/full_gaze_inference_model_1/cnn_encoder_1/conv2d_12_1/Squeeze", "shape": [24], "dtype": "float32"}, {"name": "StatefulPartitionedCall/full_gaze_inference_model_1/cnn_encoder_1/depthwise_conv2d_10_1/depthwise/ReadVariableOp", "shape": [5, 5, 24, 1], "dtype": "float32"}, {"name": "StatefulPartitionedCall/full_gaze_inference_model_1/cnn_encoder_1/depthwise_conv2d_10_1/Squeeze", "shape": [24], "dtype": "float32"}, {"name": "StatefulPartitionedCall/full_gaze_inference_model_1/cnn_encoder_1/conv2d_13_1/convolution/ReadVariableOp", "shape": [1, 1, 24, 96], "dtype": "float32"}, {"name": "StatefulPartitionedCall/full_gaze_inference_model_1/cnn_encoder_1/conv2d_13_1/Squeeze", "shape": [96], "dtype": "float32"}, {"name": "StatefulPartitionedCall/full_gaze_inference_model_1/cnn_encoder_1/depthwise_conv2d_7_1/depthwise/ReadVariableOp", "shape": [5, 5, 96, 1], "dtype": "float32"}, {"name": "StatefulPartitionedCall/full_gaze_inference_model_1/cnn_encoder_1/depthwise_conv2d_7_1/Squeeze", "shape": [96], "dtype": "float32"}, {"name": "StatefulPartitionedCall/full_gaze_inference_model_1/cnn_encoder_1/conv2d_10_1/convolution/ReadVariableOp", "shape": [1, 1, 96, 24], "dtype": "float32"}, {"name": "StatefulPartitionedCall/full_gaze_inference_model_1/cnn_encoder_1/conv2d_10_1/Squeeze", "shape": [24], "dtype": "float32"}, {"name": "StatefulPartitionedCall/full_gaze_inference_model_1/cnn_encoder_1/depthwise_conv2d_8_1/depthwise/ReadVariableOp", "shape": [5, 5, 24, 1], "dtype": "float32"}, {"name": "StatefulPartitionedCall/full_gaze_inference_model_1/cnn_encoder_1/depthwise_conv2d_8_1/Squeeze", "shape": [24], "dtype": "float32"}, {"name": "StatefulPartitionedCall/full_gaze_inference_model_1/cnn_encoder_1/conv2d_11_1/convolution/ReadVariableOp", "shape": [1, 1, 24, 96], "dtype": "float32"}, {"name": "StatefulPartitionedCall/full_gaze_inference_model_1/cnn_encoder_1/conv2d_11_1/Squeeze", "shape": [96], "dtype": "float32"}, {"name": "StatefulPartitionedCall/full_gaze_inference_model_1/cnn_encoder_1/depthwise_conv2d_5_1/depthwise/ReadVariableOp", "shape": [5, 5, 48, 1], "dtype": "float32"}, {"name": "StatefulPartitionedCall/full_gaze_inference_model_1/cnn_encoder_1/depthwise_conv2d_5_1/Squeeze", "shape": [48], "dtype": "float32"}, {"name": "StatefulPartitionedCall/full_gaze_inference_model_1/cnn_encoder_1/conv2d_7_1/convolution/ReadVariableOp", "shape": [1, 1, 48, 24], "dtype": "float32"}, {"name": "StatefulPartitionedCall/full_gaze_inference_model_1/cnn_encoder_1/conv2d_7_1/Squeeze", "shape": [24], "dtype": "float32"}, {"name": "StatefulPartitionedCall/full_gaze_inference_model_1/cnn_encoder_1/depthwise_conv2d_6_1/depthwise/ReadVariableOp", "shape": [5, 5, 24, 1], "dtype": "float32"}, {"name": "StatefulPartitionedCall/full_gaze_inference_model_1/cnn_encoder_1/depthwise_conv2d_6_1/Squeeze", "shape": [24], "dtype": "float32"}, {"name": "StatefulPartitionedCall/full_gaze_inference_model_1/cnn_encoder_1/conv2d_8_1/convolution/ReadVariableOp", "shape": [1, 1, 24, 96], "dtype": "float32"}, {"name": "StatefulPartitionedCall/full_gaze_inference_model_1/cnn_encoder_1/conv2d_8_1/Squeeze", "shape": [96], "dtype": "float32"}, {"name": "StatefulPartitionedCall/full_gaze_inference_model_1/cnn_encoder_1/depthwise_conv2d_4_1/depthwise/ReadVariableOp", "shape": [5, 5, 48, 1], "dtype": "float32"}, {"name": "StatefulPartitionedCall/full_gaze_inference_model_1/cnn_encoder_1/depthwise_conv2d_4_1/Squeeze", "shape": [48], "dtype": "float32"}, {"name": "StatefulPartitionedCall/full_gaze_inference_model_1/cnn_encoder_1/conv2d_6_1/convolution/ReadVariableOp", "shape": [1, 1, 48, 48], "dtype": "float32"}, {"name": "StatefulPartitionedCall/full_gaze_inference_model_1/cnn_encoder_1/conv2d_6_1/Squeeze", "shape": [48], "dtype": "float32"}, {"name": "StatefulPartitionedCall/full_gaze_inference_model_1/cnn_encoder_1/depthwise_conv2d_3_1/depthwise/ReadVariableOp", "shape": [5, 5, 48, 1], "dtype": "float32"}, {"name": "StatefulPartitionedCall/full_gaze_inference_model_1/cnn_encoder_1/depthwise_conv2d_3_1/Squeeze", "shape": [48], "dtype": "float32"}, {"name": "StatefulPartitionedCall/full_gaze_inference_model_1/cnn_encoder_1/conv2d_5_1/convolution/ReadVariableOp", "shape": [1, 1, 48, 48], "dtype": "float32"}, {"name": "StatefulPartitionedCall/full_gaze_inference_model_1/cnn_encoder_1/conv2d_5_1/Squeeze", "shape": [48], "dtype": "float32"}, {"name": "StatefulPartitionedCall/full_gaze_inference_model_1/cnn_encoder_1/depthwise_conv2d_2_1/depthwise/ReadVariableOp", "shape": [5, 5, 24, 1], "dtype": "float32"}, {"name": "StatefulPartitionedCall/full_gaze_inference_model_1/cnn_encoder_1/depthwise_conv2d_2_1/Squeeze", "shape": [24], "dtype": "float32"}, {"name": "StatefulPartitionedCall/full_gaze_inference_model_1/cnn_encoder_1/conv2d_3_1/convolution/ReadVariableOp", "shape": [1, 1, 24, 48], "dtype": "float32"}, {"name": "StatefulPartitionedCall/full_gaze_inference_model_1/cnn_encoder_1/conv2d_3_1/Squeeze", "shape": [48], "dtype": "float32"}, {"name": "StatefulPartitionedCall/full_gaze_inference_model_1/cnn_encoder_1/depthwise_conv2d_1_2/depthwise/ReadVariableOp", "shape": [5, 5, 24, 1], "dtype": "float32"}, {"name": "StatefulPartitionedCall/full_gaze_inference_model_1/cnn_encoder_1/depthwise_conv2d_1_2/Squeeze", "shape": [24], "dtype": "float32"}, {"name": "StatefulPartitionedCall/full_gaze_inference_model_1/cnn_encoder_1/conv2d_2_1/convolution/ReadVariableOp", "shape": [1, 1, 24, 24], "dtype": "float32"}, {"name": "StatefulPartitionedCall/full_gaze_inference_model_1/cnn_encoder_1/conv2d_2_1/Squeeze", "shape": [24], "dtype": "float32"}, {"name": "StatefulPartitionedCall/full_gaze_inference_model_1/cnn_encoder_1/depthwise_conv2d_1/depthwise/ReadVariableOp", "shape": [5, 5, 24, 1], "dtype": "float32"}, {"name": "StatefulPartitionedCall/full_gaze_inference_model_1/cnn_encoder_1/depthwise_conv2d_1/Squeeze", "shape": [24], "dtype": "float32"}, {"name": "StatefulPartitionedCall/full_gaze_inference_model_1/cnn_encoder_1/conv2d_1_2/convolution/ReadVariableOp", "shape": [1, 1, 24, 24], "dtype": "float32"}, {"name": "StatefulPartitionedCall/full_gaze_inference_model_1/cnn_encoder_1/conv2d_1_2/Squeeze", "shape": [24], "dtype": "float32"}, {"name": "StatefulPartitionedCall/full_gaze_inference_model_1/cnn_encoder_1/conv2d_1/convolution/ReadVariableOp", "shape": [5, 5, 3, 24], "dtype": "float32"}, {"name": "StatefulPartitionedCall/full_gaze_inference_model_1/cnn_encoder_1/conv2d_1/Squeeze", "shape": [24], "dtype": "float32"}, {"name": "StatefulPartitionedCall/full_gaze_inference_model_1/cnn_encoder_1/conv2d_4_1/convolution/ReadVariableOp", "shape": [1, 1, 24, 48], "dtype": "float32"}, {"name": "StatefulPartitionedCall/full_gaze_inference_model_1/cnn_encoder_1/conv2d_4_1/Squeeze", "shape": [48], "dtype": "float32"}, {"name": "StatefulPartitionedCall/full_gaze_inference_model_1/cnn_encoder_1/conv2d_9_1/convolution/ReadVariableOp", "shape": [1, 1, 48, 96], "dtype": "float32"}, {"name": "StatefulPartitionedCall/full_gaze_inference_model_1/cnn_encoder_1/conv2d_9_1/Squeeze", "shape": [96], "dtype": "float32"}, {"name": "StatefulPartitionedCall/full_gaze_inference_model_1/cnn_encoder_1/conv2d_16_1/convolution/ReadVariableOp", "shape": [1, 1, 96, 96], "dtype": "float32"}, {"name": "StatefulPartitionedCall/full_gaze_inference_model_1/cnn_encoder_1/conv2d_16_1/Squeeze", "shape": [96], "dtype": "float32"}, {"name": "StatefulPartitionedCall/full_gaze_inference_model_1/cnn_encoder_1/conv2d_21_1/convolution/ReadVariableOp", "shape": [3, 3, 96, 64], "dtype": "float32"}, {"name": "StatefulPartitionedCall/full_gaze_inference_model_1/cnn_encoder_1/conv2d_21_1/Squeeze", "shape": [64], "dtype": "float32"}, {"name": "StatefulPartitionedCall/full_gaze_inference_model_1/cnn_encoder_1/batch_normalization_1/batchnorm/mul", "shape": [64], "dtype": "float32"}, {"name": "StatefulPartitionedCall/full_gaze_inference_model_1/cnn_encoder_1/batch_normalization_1/batchnorm/sub", "shape": [64], "dtype": "float32"}, {"name": "StatefulPartitionedCall/full_gaze_inference_model_1/cnn_encoder_1/conv2d_22_1/convolution/ReadVariableOp", "shape": [3, 3, 64, 32], "dtype": "float32"}, {"name": "StatefulPartitionedCall/full_gaze_inference_model_1/cnn_encoder_1/conv2d_22_1/Squeeze", "shape": [32], "dtype": "float32"}, {"name": "StatefulPartitionedCall/full_gaze_inference_model_1/cnn_encoder_1/batch_normalization_1_2/batchnorm/mul", "shape": [32], "dtype": "float32"}, {"name": "StatefulPartitionedCall/full_gaze_inference_model_1/cnn_encoder_1/batch_normalization_1_2/batchnorm/sub", "shape": [32], "dtype": "float32"}, {"name": "StatefulPartitionedCall/full_gaze_inference_model_1/cnn_encoder_1/embedding_1/Reshape/shape", "shape": [2], "dtype": "int32"}, {"name": "StatefulPartitionedCall/full_gaze_inference_model_1/gaze_mlp_1/feature_concat_1/concat/axis", "shape": [], "dtype": "int32"}, {"name": "StatefulPartitionedCall/full_gaze_inference_model_1/gaze_mlp_1/dense_1/Cast/ReadVariableOp", "shape": [518, 16], "dtype": "float32"}, {"name": "StatefulPartitionedCall/full_gaze_inference_model_1/gaze_mlp_1/dense_1/BiasAdd/ReadVariableOp", "shape": [16], "dtype": "float32"}, {"name": "StatefulPartitionedCall/full_gaze_inference_model_1/gaze_mlp_1/dense_1_2/Cast/ReadVariableOp", "shape": [16, 16], "dtype": "float32"}, {"name": "StatefulPartitionedCall/full_gaze_inference_model_1/gaze_mlp_1/dense_1_2/BiasAdd/ReadVariableOp", "shape": [16], "dtype": "float32"}, {"name": "StatefulPartitionedCall/full_gaze_inference_model_1/gaze_mlp_1/gaze_output_1/Cast/ReadVariableOp", "shape": [16, 2], "dtype": "float32"}, {"name": "StatefulPartitionedCall/full_gaze_inference_model_1/gaze_mlp_1/gaze_output_1/BiasAdd/ReadVariableOp", "shape": [2], "dtype": "float32"}]}]}