{"format": "layers-model", "generatedBy": "keras v3.10.0", "convertedBy": "TensorFlow.js Converter v4.22.0", "modelTopology": {"keras_version": "3.10.0", "backend": "tensorflow", "model_config": {"class_name": "Functional", "config": {"name": "full_gaze_inference_model", "trainable": true, "layers": [{"class_name": "InputLayer", "config": {"batch_shape": [null, 128, 512, 3], "dtype": "float32", "sparse": false, "ragged": false, "name": "image"}, "name": "image", "inbound_nodes": []}, {"class_name": "Functional", "config": {"name": "cnn_encoder", "trainable": true, "layers": [{"class_name": "InputLayer", "config": {"batch_shape": [null, 128, 512, 3], "dtype": "float32", "sparse": false, "ragged": false, "name": "input_layer"}, "name": "input_layer", "inbound_nodes": []}, {"class_name": "Conv2D", "config": {"name": "conv2d", "trainable": false, "dtype": {"module": "keras", "class_name": "DTypePolicy", "config": {"name": "float32"}, "registered_name": null}, "filters": 24, "kernel_size": [5, 5], "strides": [2, 2], "padding": "same", "data_format": "channels_last", "dilation_rate": [1, 1], "groups": 1, "activation": "relu", "use_bias": true, "kernel_initializer": {"module": "keras.initializers", "class_name": "GlorotUniform", "config": {"seed": null}, "registered_name": null}, "bias_initializer": {"module": "keras.initializers", "class_name": "Zeros", "config": {}, "registered_name": null}, "kernel_regularizer": null, "bias_regularizer": null, "activity_regularizer": null, "kernel_constraint": null, "bias_constraint": null}, "name": "conv2d", "inbound_nodes": [{"args": [{"class_name": "__keras_tensor__", "config": {"shape": [null, 128, 512, 3], "dtype": "float32", "keras_history": ["input_layer", 0, 0]}}], "kwargs": {}}]}, {"class_name": "DepthwiseConv2D", "config": {"name": "depthwise_conv2d", "trainable": false, "dtype": {"module": "keras", "class_name": "DTypePolicy", "config": {"name": "float32"}, "registered_name": null}, "depth_multiplier": 1, "kernel_size": [5, 5], "strides": [1, 1], "padding": "same", "data_format": "channels_last", "dilation_rate": [1, 1], "activation": "linear", "use_bias": true, "depthwise_initializer": {"module": "keras.initializers", "class_name": "GlorotUniform", "config": {"seed": null}, "registered_name": null}, "bias_initializer": {"module": "keras.initializers", "class_name": "Zeros", "config": {}, "registered_name": null}, "depthwise_regularizer": null, "bias_regularizer": null, "activity_regularizer": null, "depthwise_constraint": null, "bias_constraint": null}, "name": "depthwise_conv2d", "inbound_nodes": [{"args": [{"class_name": "__keras_tensor__", "config": {"shape": [null, 64, 256, 24], "dtype": "float32", "keras_history": ["conv2d", 0, 0]}}], "kwargs": {}}]}, {"class_name": "Conv2D", "config": {"name": "conv2d_1", "trainable": false, "dtype": {"module": "keras", "class_name": "DTypePolicy", "config": {"name": "float32"}, "registered_name": null}, "filters": 24, "kernel_size": [1, 1], "strides": [1, 1], "padding": "same", "data_format": "channels_last", "dilation_rate": [1, 1], "groups": 1, "activation": "linear", "use_bias": true, "kernel_initializer": {"module": "keras.initializers", "class_name": "GlorotUniform", "config": {"seed": null}, "registered_name": null}, "bias_initializer": {"module": "keras.initializers", "class_name": "Zeros", "config": {}, "registered_name": null}, "kernel_regularizer": null, "bias_regularizer": null, "activity_regularizer": null, "kernel_constraint": null, "bias_constraint": null}, "name": "conv2d_1", "inbound_nodes": [{"args": [{"class_name": "__keras_tensor__", "config": {"shape": [null, 64, 256, 24], "dtype": "float32", "keras_history": ["depthwise_conv2d", 0, 0]}}], "kwargs": {}}]}, {"class_name": "Add", "config": {"name": "add", "trainable": false, "dtype": {"module": "keras", "class_name": "DTypePolicy", "config": {"name": "float32"}, "registered_name": null}}, "name": "add", "inbound_nodes": [{"args": [[{"class_name": "__keras_tensor__", "config": {"shape": [null, 64, 256, 24], "dtype": "float32", "keras_history": ["conv2d_1", 0, 0]}}, {"class_name": "__keras_tensor__", "config": {"shape": [null, 64, 256, 24], "dtype": "float32", "keras_history": ["conv2d", 0, 0]}}]], "kwargs": {}}]}, {"class_name": "Activation", "config": {"name": "activation", "trainable": false, "dtype": {"module": "keras", "class_name": "DTypePolicy", "config": {"name": "float32"}, "registered_name": null}, "activation": "relu"}, "name": "activation", "inbound_nodes": [{"args": [{"class_name": "__keras_tensor__", "config": {"shape": [null, 64, 256, 24], "dtype": "float32", "keras_history": ["add", 0, 0]}}], "kwargs": {}}]}, {"class_name": "DepthwiseConv2D", "config": {"name": "depthwise_conv2d_1", "trainable": false, "dtype": {"module": "keras", "class_name": "DTypePolicy", "config": {"name": "float32"}, "registered_name": null}, "depth_multiplier": 1, "kernel_size": [5, 5], "strides": [1, 1], "padding": "same", "data_format": "channels_last", "dilation_rate": [1, 1], "activation": "linear", "use_bias": true, "depthwise_initializer": {"module": "keras.initializers", "class_name": "GlorotUniform", "config": {"seed": null}, "registered_name": null}, "bias_initializer": {"module": "keras.initializers", "class_name": "Zeros", "config": {}, "registered_name": null}, "depthwise_regularizer": null, "bias_regularizer": null, "activity_regularizer": null, "depthwise_constraint": null, "bias_constraint": null}, "name": "depthwise_conv2d_1", "inbound_nodes": [{"args": [{"class_name": "__keras_tensor__", "config": {"shape": [null, 64, 256, 24], "dtype": "float32", "keras_history": ["activation", 0, 0]}}], "kwargs": {}}]}, {"class_name": "Conv2D", "config": {"name": "conv2d_2", "trainable": false, "dtype": {"module": "keras", "class_name": "DTypePolicy", "config": {"name": "float32"}, "registered_name": null}, "filters": 24, "kernel_size": [1, 1], "strides": [1, 1], "padding": "same", "data_format": "channels_last", "dilation_rate": [1, 1], "groups": 1, "activation": "linear", "use_bias": true, "kernel_initializer": {"module": "keras.initializers", "class_name": "GlorotUniform", "config": {"seed": null}, "registered_name": null}, "bias_initializer": {"module": "keras.initializers", "class_name": "Zeros", "config": {}, "registered_name": null}, "kernel_regularizer": null, "bias_regularizer": null, "activity_regularizer": null, "kernel_constraint": null, "bias_constraint": null}, "name": "conv2d_2", "inbound_nodes": [{"args": [{"class_name": "__keras_tensor__", "config": {"shape": [null, 64, 256, 24], "dtype": "float32", "keras_history": ["depthwise_conv2d_1", 0, 0]}}], "kwargs": {}}]}, {"class_name": "Add", "config": {"name": "add_1", "trainable": false, "dtype": {"module": "keras", "class_name": "DTypePolicy", "config": {"name": "float32"}, "registered_name": null}}, "name": "add_1", "inbound_nodes": [{"args": [[{"class_name": "__keras_tensor__", "config": {"shape": [null, 64, 256, 24], "dtype": "float32", "keras_history": ["conv2d_2", 0, 0]}}, {"class_name": "__keras_tensor__", "config": {"shape": [null, 64, 256, 24], "dtype": "float32", "keras_history": ["activation", 0, 0]}}]], "kwargs": {}}]}, {"class_name": "Activation", "config": {"name": "activation_1", "trainable": false, "dtype": {"module": "keras", "class_name": "DTypePolicy", "config": {"name": "float32"}, "registered_name": null}, "activation": "relu"}, "name": "activation_1", "inbound_nodes": [{"args": [{"class_name": "__keras_tensor__", "config": {"shape": [null, 64, 256, 24], "dtype": "float32", "keras_history": ["add_1", 0, 0]}}], "kwargs": {}}]}, {"class_name": "DepthwiseConv2D", "config": {"name": "depthwise_conv2d_2", "trainable": false, "dtype": {"module": "keras", "class_name": "DTypePolicy", "config": {"name": "float32"}, "registered_name": null}, "depth_multiplier": 1, "kernel_size": [5, 5], "strides": [2, 2], "padding": "same", "data_format": "channels_last", "dilation_rate": [1, 1], "activation": "linear", "use_bias": true, "depthwise_initializer": {"module": "keras.initializers", "class_name": "GlorotUniform", "config": {"seed": null}, "registered_name": null}, "bias_initializer": {"module": "keras.initializers", "class_name": "Zeros", "config": {}, "registered_name": null}, "depthwise_regularizer": null, "bias_regularizer": null, "activity_regularizer": null, "depthwise_constraint": null, "bias_constraint": null}, "name": "depthwise_conv2d_2", "inbound_nodes": [{"args": [{"class_name": "__keras_tensor__", "config": {"shape": [null, 64, 256, 24], "dtype": "float32", "keras_history": ["activation_1", 0, 0]}}], "kwargs": {}}]}, {"class_name": "MaxPooling2D", "config": {"name": "max_pooling2d", "trainable": false, "dtype": {"module": "keras", "class_name": "DTypePolicy", "config": {"name": "float32"}, "registered_name": null}, "pool_size": [2, 2], "padding": "valid", "strides": [2, 2], "data_format": "channels_last"}, "name": "max_pooling2d", "inbound_nodes": [{"args": [{"class_name": "__keras_tensor__", "config": {"shape": [null, 64, 256, 24], "dtype": "float32", "keras_history": ["activation_1", 0, 0]}}], "kwargs": {}}]}, {"class_name": "Conv2D", "config": {"name": "conv2d_3", "trainable": false, "dtype": {"module": "keras", "class_name": "DTypePolicy", "config": {"name": "float32"}, "registered_name": null}, "filters": 48, "kernel_size": [1, 1], "strides": [1, 1], "padding": "same", "data_format": "channels_last", "dilation_rate": [1, 1], "groups": 1, "activation": "linear", "use_bias": true, "kernel_initializer": {"module": "keras.initializers", "class_name": "GlorotUniform", "config": {"seed": null}, "registered_name": null}, "bias_initializer": {"module": "keras.initializers", "class_name": "Zeros", "config": {}, "registered_name": null}, "kernel_regularizer": null, "bias_regularizer": null, "activity_regularizer": null, "kernel_constraint": null, "bias_constraint": null}, "name": "conv2d_3", "inbound_nodes": [{"args": [{"class_name": "__keras_tensor__", "config": {"shape": [null, 32, 128, 24], "dtype": "float32", "keras_history": ["depthwise_conv2d_2", 0, 0]}}], "kwargs": {}}]}, {"class_name": "Conv2D", "config": {"name": "conv2d_4", "trainable": false, "dtype": {"module": "keras", "class_name": "DTypePolicy", "config": {"name": "float32"}, "registered_name": null}, "filters": 48, "kernel_size": [1, 1], "strides": [1, 1], "padding": "same", "data_format": "channels_last", "dilation_rate": [1, 1], "groups": 1, "activation": "linear", "use_bias": true, "kernel_initializer": {"module": "keras.initializers", "class_name": "GlorotUniform", "config": {"seed": null}, "registered_name": null}, "bias_initializer": {"module": "keras.initializers", "class_name": "Zeros", "config": {}, "registered_name": null}, "kernel_regularizer": null, "bias_regularizer": null, "activity_regularizer": null, "kernel_constraint": null, "bias_constraint": null}, "name": "conv2d_4", "inbound_nodes": [{"args": [{"class_name": "__keras_tensor__", "config": {"shape": [null, 32, 128, 24], "dtype": "float32", "keras_history": ["max_pooling2d", 0, 0]}}], "kwargs": {}}]}, {"class_name": "Add", "config": {"name": "add_2", "trainable": false, "dtype": {"module": "keras", "class_name": "DTypePolicy", "config": {"name": "float32"}, "registered_name": null}}, "name": "add_2", "inbound_nodes": [{"args": [[{"class_name": "__keras_tensor__", "config": {"shape": [null, 32, 128, 48], "dtype": "float32", "keras_history": ["conv2d_3", 0, 0]}}, {"class_name": "__keras_tensor__", "config": {"shape": [null, 32, 128, 48], "dtype": "float32", "keras_history": ["conv2d_4", 0, 0]}}]], "kwargs": {}}]}, {"class_name": "Activation", "config": {"name": "activation_2", "trainable": false, "dtype": {"module": "keras", "class_name": "DTypePolicy", "config": {"name": "float32"}, "registered_name": null}, "activation": "relu"}, "name": "activation_2", "inbound_nodes": [{"args": [{"class_name": "__keras_tensor__", "config": {"shape": [null, 32, 128, 48], "dtype": "float32", "keras_history": ["add_2", 0, 0]}}], "kwargs": {}}]}, {"class_name": "DepthwiseConv2D", "config": {"name": "depthwise_conv2d_3", "trainable": false, "dtype": {"module": "keras", "class_name": "DTypePolicy", "config": {"name": "float32"}, "registered_name": null}, "depth_multiplier": 1, "kernel_size": [5, 5], "strides": [1, 1], "padding": "same", "data_format": "channels_last", "dilation_rate": [1, 1], "activation": "linear", "use_bias": true, "depthwise_initializer": {"module": "keras.initializers", "class_name": "GlorotUniform", "config": {"seed": null}, "registered_name": null}, "bias_initializer": {"module": "keras.initializers", "class_name": "Zeros", "config": {}, "registered_name": null}, "depthwise_regularizer": null, "bias_regularizer": null, "activity_regularizer": null, "depthwise_constraint": null, "bias_constraint": null}, "name": "depthwise_conv2d_3", "inbound_nodes": [{"args": [{"class_name": "__keras_tensor__", "config": {"shape": [null, 32, 128, 48], "dtype": "float32", "keras_history": ["activation_2", 0, 0]}}], "kwargs": {}}]}, {"class_name": "Conv2D", "config": {"name": "conv2d_5", "trainable": false, "dtype": {"module": "keras", "class_name": "DTypePolicy", "config": {"name": "float32"}, "registered_name": null}, "filters": 48, "kernel_size": [1, 1], "strides": [1, 1], "padding": "same", "data_format": "channels_last", "dilation_rate": [1, 1], "groups": 1, "activation": "linear", "use_bias": true, "kernel_initializer": {"module": "keras.initializers", "class_name": "GlorotUniform", "config": {"seed": null}, "registered_name": null}, "bias_initializer": {"module": "keras.initializers", "class_name": "Zeros", "config": {}, "registered_name": null}, "kernel_regularizer": null, "bias_regularizer": null, "activity_regularizer": null, "kernel_constraint": null, "bias_constraint": null}, "name": "conv2d_5", "inbound_nodes": [{"args": [{"class_name": "__keras_tensor__", "config": {"shape": [null, 32, 128, 48], "dtype": "float32", "keras_history": ["depthwise_conv2d_3", 0, 0]}}], "kwargs": {}}]}, {"class_name": "Add", "config": {"name": "add_3", "trainable": false, "dtype": {"module": "keras", "class_name": "DTypePolicy", "config": {"name": "float32"}, "registered_name": null}}, "name": "add_3", "inbound_nodes": [{"args": [[{"class_name": "__keras_tensor__", "config": {"shape": [null, 32, 128, 48], "dtype": "float32", "keras_history": ["conv2d_5", 0, 0]}}, {"class_name": "__keras_tensor__", "config": {"shape": [null, 32, 128, 48], "dtype": "float32", "keras_history": ["activation_2", 0, 0]}}]], "kwargs": {}}]}, {"class_name": "Activation", "config": {"name": "activation_3", "trainable": false, "dtype": {"module": "keras", "class_name": "DTypePolicy", "config": {"name": "float32"}, "registered_name": null}, "activation": "relu"}, "name": "activation_3", "inbound_nodes": [{"args": [{"class_name": "__keras_tensor__", "config": {"shape": [null, 32, 128, 48], "dtype": "float32", "keras_history": ["add_3", 0, 0]}}], "kwargs": {}}]}, {"class_name": "DepthwiseConv2D", "config": {"name": "depthwise_conv2d_4", "trainable": false, "dtype": {"module": "keras", "class_name": "DTypePolicy", "config": {"name": "float32"}, "registered_name": null}, "depth_multiplier": 1, "kernel_size": [5, 5], "strides": [1, 1], "padding": "same", "data_format": "channels_last", "dilation_rate": [1, 1], "activation": "linear", "use_bias": true, "depthwise_initializer": {"module": "keras.initializers", "class_name": "GlorotUniform", "config": {"seed": null}, "registered_name": null}, "bias_initializer": {"module": "keras.initializers", "class_name": "Zeros", "config": {}, "registered_name": null}, "depthwise_regularizer": null, "bias_regularizer": null, "activity_regularizer": null, "depthwise_constraint": null, "bias_constraint": null}, "name": "depthwise_conv2d_4", "inbound_nodes": [{"args": [{"class_name": "__keras_tensor__", "config": {"shape": [null, 32, 128, 48], "dtype": "float32", "keras_history": ["activation_3", 0, 0]}}], "kwargs": {}}]}, {"class_name": "Conv2D", "config": {"name": "conv2d_6", "trainable": false, "dtype": {"module": "keras", "class_name": "DTypePolicy", "config": {"name": "float32"}, "registered_name": null}, "filters": 48, "kernel_size": [1, 1], "strides": [1, 1], "padding": "same", "data_format": "channels_last", "dilation_rate": [1, 1], "groups": 1, "activation": "linear", "use_bias": true, "kernel_initializer": {"module": "keras.initializers", "class_name": "GlorotUniform", "config": {"seed": null}, "registered_name": null}, "bias_initializer": {"module": "keras.initializers", "class_name": "Zeros", "config": {}, "registered_name": null}, "kernel_regularizer": null, "bias_regularizer": null, "activity_regularizer": null, "kernel_constraint": null, "bias_constraint": null}, "name": "conv2d_6", "inbound_nodes": [{"args": [{"class_name": "__keras_tensor__", "config": {"shape": [null, 32, 128, 48], "dtype": "float32", "keras_history": ["depthwise_conv2d_4", 0, 0]}}], "kwargs": {}}]}, {"class_name": "Add", "config": {"name": "add_4", "trainable": false, "dtype": {"module": "keras", "class_name": "DTypePolicy", "config": {"name": "float32"}, "registered_name": null}}, "name": "add_4", "inbound_nodes": [{"args": [[{"class_name": "__keras_tensor__", "config": {"shape": [null, 32, 128, 48], "dtype": "float32", "keras_history": ["conv2d_6", 0, 0]}}, {"class_name": "__keras_tensor__", "config": {"shape": [null, 32, 128, 48], "dtype": "float32", "keras_history": ["activation_3", 0, 0]}}]], "kwargs": {}}]}, {"class_name": "Activation", "config": {"name": "activation_4", "trainable": false, "dtype": {"module": "keras", "class_name": "DTypePolicy", "config": {"name": "float32"}, "registered_name": null}, "activation": "relu"}, "name": "activation_4", "inbound_nodes": [{"args": [{"class_name": "__keras_tensor__", "config": {"shape": [null, 32, 128, 48], "dtype": "float32", "keras_history": ["add_4", 0, 0]}}], "kwargs": {}}]}, {"class_name": "DepthwiseConv2D", "config": {"name": "depthwise_conv2d_5", "trainable": false, "dtype": {"module": "keras", "class_name": "DTypePolicy", "config": {"name": "float32"}, "registered_name": null}, "depth_multiplier": 1, "kernel_size": [5, 5], "strides": [2, 2], "padding": "same", "data_format": "channels_last", "dilation_rate": [1, 1], "activation": "linear", "use_bias": true, "depthwise_initializer": {"module": "keras.initializers", "class_name": "GlorotUniform", "config": {"seed": null}, "registered_name": null}, "bias_initializer": {"module": "keras.initializers", "class_name": "Zeros", "config": {}, "registered_name": null}, "depthwise_regularizer": null, "bias_regularizer": null, "activity_regularizer": null, "depthwise_constraint": null, "bias_constraint": null}, "name": "depthwise_conv2d_5", "inbound_nodes": [{"args": [{"class_name": "__keras_tensor__", "config": {"shape": [null, 32, 128, 48], "dtype": "float32", "keras_history": ["activation_4", 0, 0]}}], "kwargs": {}}]}, {"class_name": "Conv2D", "config": {"name": "conv2d_7", "trainable": false, "dtype": {"module": "keras", "class_name": "DTypePolicy", "config": {"name": "float32"}, "registered_name": null}, "filters": 24, "kernel_size": [1, 1], "strides": [1, 1], "padding": "same", "data_format": "channels_last", "dilation_rate": [1, 1], "groups": 1, "activation": "linear", "use_bias": true, "kernel_initializer": {"module": "keras.initializers", "class_name": "GlorotUniform", "config": {"seed": null}, "registered_name": null}, "bias_initializer": {"module": "keras.initializers", "class_name": "Zeros", "config": {}, "registered_name": null}, "kernel_regularizer": null, "bias_regularizer": null, "activity_regularizer": null, "kernel_constraint": null, "bias_constraint": null}, "name": "conv2d_7", "inbound_nodes": [{"args": [{"class_name": "__keras_tensor__", "config": {"shape": [null, 16, 64, 48], "dtype": "float32", "keras_history": ["depthwise_conv2d_5", 0, 0]}}], "kwargs": {}}]}, {"class_name": "Activation", "config": {"name": "activation_5", "trainable": false, "dtype": {"module": "keras", "class_name": "DTypePolicy", "config": {"name": "float32"}, "registered_name": null}, "activation": "relu"}, "name": "activation_5", "inbound_nodes": [{"args": [{"class_name": "__keras_tensor__", "config": {"shape": [null, 16, 64, 24], "dtype": "float32", "keras_history": ["conv2d_7", 0, 0]}}], "kwargs": {}}]}, {"class_name": "DepthwiseConv2D", "config": {"name": "depthwise_conv2d_6", "trainable": false, "dtype": {"module": "keras", "class_name": "DTypePolicy", "config": {"name": "float32"}, "registered_name": null}, "depth_multiplier": 1, "kernel_size": [5, 5], "strides": [1, 1], "padding": "same", "data_format": "channels_last", "dilation_rate": [1, 1], "activation": "linear", "use_bias": true, "depthwise_initializer": {"module": "keras.initializers", "class_name": "GlorotUniform", "config": {"seed": null}, "registered_name": null}, "bias_initializer": {"module": "keras.initializers", "class_name": "Zeros", "config": {}, "registered_name": null}, "depthwise_regularizer": null, "bias_regularizer": null, "activity_regularizer": null, "depthwise_constraint": null, "bias_constraint": null}, "name": "depthwise_conv2d_6", "inbound_nodes": [{"args": [{"class_name": "__keras_tensor__", "config": {"shape": [null, 16, 64, 24], "dtype": "float32", "keras_history": ["activation_5", 0, 0]}}], "kwargs": {}}]}, {"class_name": "MaxPooling2D", "config": {"name": "max_pooling2d_1", "trainable": false, "dtype": {"module": "keras", "class_name": "DTypePolicy", "config": {"name": "float32"}, "registered_name": null}, "pool_size": [2, 2], "padding": "valid", "strides": [2, 2], "data_format": "channels_last"}, "name": "max_pooling2d_1", "inbound_nodes": [{"args": [{"class_name": "__keras_tensor__", "config": {"shape": [null, 32, 128, 48], "dtype": "float32", "keras_history": ["activation_4", 0, 0]}}], "kwargs": {}}]}, {"class_name": "Conv2D", "config": {"name": "conv2d_8", "trainable": false, "dtype": {"module": "keras", "class_name": "DTypePolicy", "config": {"name": "float32"}, "registered_name": null}, "filters": 96, "kernel_size": [1, 1], "strides": [1, 1], "padding": "same", "data_format": "channels_last", "dilation_rate": [1, 1], "groups": 1, "activation": "linear", "use_bias": true, "kernel_initializer": {"module": "keras.initializers", "class_name": "GlorotUniform", "config": {"seed": null}, "registered_name": null}, "bias_initializer": {"module": "keras.initializers", "class_name": "Zeros", "config": {}, "registered_name": null}, "kernel_regularizer": null, "bias_regularizer": null, "activity_regularizer": null, "kernel_constraint": null, "bias_constraint": null}, "name": "conv2d_8", "inbound_nodes": [{"args": [{"class_name": "__keras_tensor__", "config": {"shape": [null, 16, 64, 24], "dtype": "float32", "keras_history": ["depthwise_conv2d_6", 0, 0]}}], "kwargs": {}}]}, {"class_name": "Conv2D", "config": {"name": "conv2d_9", "trainable": false, "dtype": {"module": "keras", "class_name": "DTypePolicy", "config": {"name": "float32"}, "registered_name": null}, "filters": 96, "kernel_size": [1, 1], "strides": [1, 1], "padding": "same", "data_format": "channels_last", "dilation_rate": [1, 1], "groups": 1, "activation": "linear", "use_bias": true, "kernel_initializer": {"module": "keras.initializers", "class_name": "GlorotUniform", "config": {"seed": null}, "registered_name": null}, "bias_initializer": {"module": "keras.initializers", "class_name": "Zeros", "config": {}, "registered_name": null}, "kernel_regularizer": null, "bias_regularizer": null, "activity_regularizer": null, "kernel_constraint": null, "bias_constraint": null}, "name": "conv2d_9", "inbound_nodes": [{"args": [{"class_name": "__keras_tensor__", "config": {"shape": [null, 16, 64, 48], "dtype": "float32", "keras_history": ["max_pooling2d_1", 0, 0]}}], "kwargs": {}}]}, {"class_name": "Add", "config": {"name": "add_5", "trainable": false, "dtype": {"module": "keras", "class_name": "DTypePolicy", "config": {"name": "float32"}, "registered_name": null}}, "name": "add_5", "inbound_nodes": [{"args": [[{"class_name": "__keras_tensor__", "config": {"shape": [null, 16, 64, 96], "dtype": "float32", "keras_history": ["conv2d_8", 0, 0]}}, {"class_name": "__keras_tensor__", "config": {"shape": [null, 16, 64, 96], "dtype": "float32", "keras_history": ["conv2d_9", 0, 0]}}]], "kwargs": {}}]}, {"class_name": "Activation", "config": {"name": "activation_6", "trainable": false, "dtype": {"module": "keras", "class_name": "DTypePolicy", "config": {"name": "float32"}, "registered_name": null}, "activation": "relu"}, "name": "activation_6", "inbound_nodes": [{"args": [{"class_name": "__keras_tensor__", "config": {"shape": [null, 16, 64, 96], "dtype": "float32", "keras_history": ["add_5", 0, 0]}}], "kwargs": {}}]}, {"class_name": "DepthwiseConv2D", "config": {"name": "depthwise_conv2d_7", "trainable": false, "dtype": {"module": "keras", "class_name": "DTypePolicy", "config": {"name": "float32"}, "registered_name": null}, "depth_multiplier": 1, "kernel_size": [5, 5], "strides": [1, 1], "padding": "same", "data_format": "channels_last", "dilation_rate": [1, 1], "activation": "linear", "use_bias": true, "depthwise_initializer": {"module": "keras.initializers", "class_name": "GlorotUniform", "config": {"seed": null}, "registered_name": null}, "bias_initializer": {"module": "keras.initializers", "class_name": "Zeros", "config": {}, "registered_name": null}, "depthwise_regularizer": null, "bias_regularizer": null, "activity_regularizer": null, "depthwise_constraint": null, "bias_constraint": null}, "name": "depthwise_conv2d_7", "inbound_nodes": [{"args": [{"class_name": "__keras_tensor__", "config": {"shape": [null, 16, 64, 96], "dtype": "float32", "keras_history": ["activation_6", 0, 0]}}], "kwargs": {}}]}, {"class_name": "Conv2D", "config": {"name": "conv2d_10", "trainable": false, "dtype": {"module": "keras", "class_name": "DTypePolicy", "config": {"name": "float32"}, "registered_name": null}, "filters": 24, "kernel_size": [1, 1], "strides": [1, 1], "padding": "same", "data_format": "channels_last", "dilation_rate": [1, 1], "groups": 1, "activation": "linear", "use_bias": true, "kernel_initializer": {"module": "keras.initializers", "class_name": "GlorotUniform", "config": {"seed": null}, "registered_name": null}, "bias_initializer": {"module": "keras.initializers", "class_name": "Zeros", "config": {}, "registered_name": null}, "kernel_regularizer": null, "bias_regularizer": null, "activity_regularizer": null, "kernel_constraint": null, "bias_constraint": null}, "name": "conv2d_10", "inbound_nodes": [{"args": [{"class_name": "__keras_tensor__", "config": {"shape": [null, 16, 64, 96], "dtype": "float32", "keras_history": ["depthwise_conv2d_7", 0, 0]}}], "kwargs": {}}]}, {"class_name": "Activation", "config": {"name": "activation_7", "trainable": false, "dtype": {"module": "keras", "class_name": "DTypePolicy", "config": {"name": "float32"}, "registered_name": null}, "activation": "relu"}, "name": "activation_7", "inbound_nodes": [{"args": [{"class_name": "__keras_tensor__", "config": {"shape": [null, 16, 64, 24], "dtype": "float32", "keras_history": ["conv2d_10", 0, 0]}}], "kwargs": {}}]}, {"class_name": "DepthwiseConv2D", "config": {"name": "depthwise_conv2d_8", "trainable": false, "dtype": {"module": "keras", "class_name": "DTypePolicy", "config": {"name": "float32"}, "registered_name": null}, "depth_multiplier": 1, "kernel_size": [5, 5], "strides": [1, 1], "padding": "same", "data_format": "channels_last", "dilation_rate": [1, 1], "activation": "linear", "use_bias": true, "depthwise_initializer": {"module": "keras.initializers", "class_name": "GlorotUniform", "config": {"seed": null}, "registered_name": null}, "bias_initializer": {"module": "keras.initializers", "class_name": "Zeros", "config": {}, "registered_name": null}, "depthwise_regularizer": null, "bias_regularizer": null, "activity_regularizer": null, "depthwise_constraint": null, "bias_constraint": null}, "name": "depthwise_conv2d_8", "inbound_nodes": [{"args": [{"class_name": "__keras_tensor__", "config": {"shape": [null, 16, 64, 24], "dtype": "float32", "keras_history": ["activation_7", 0, 0]}}], "kwargs": {}}]}, {"class_name": "Conv2D", "config": {"name": "conv2d_11", "trainable": false, "dtype": {"module": "keras", "class_name": "DTypePolicy", "config": {"name": "float32"}, "registered_name": null}, "filters": 96, "kernel_size": [1, 1], "strides": [1, 1], "padding": "same", "data_format": "channels_last", "dilation_rate": [1, 1], "groups": 1, "activation": "linear", "use_bias": true, "kernel_initializer": {"module": "keras.initializers", "class_name": "GlorotUniform", "config": {"seed": null}, "registered_name": null}, "bias_initializer": {"module": "keras.initializers", "class_name": "Zeros", "config": {}, "registered_name": null}, "kernel_regularizer": null, "bias_regularizer": null, "activity_regularizer": null, "kernel_constraint": null, "bias_constraint": null}, "name": "conv2d_11", "inbound_nodes": [{"args": [{"class_name": "__keras_tensor__", "config": {"shape": [null, 16, 64, 24], "dtype": "float32", "keras_history": ["depthwise_conv2d_8", 0, 0]}}], "kwargs": {}}]}, {"class_name": "Add", "config": {"name": "add_6", "trainable": false, "dtype": {"module": "keras", "class_name": "DTypePolicy", "config": {"name": "float32"}, "registered_name": null}}, "name": "add_6", "inbound_nodes": [{"args": [[{"class_name": "__keras_tensor__", "config": {"shape": [null, 16, 64, 96], "dtype": "float32", "keras_history": ["conv2d_11", 0, 0]}}, {"class_name": "__keras_tensor__", "config": {"shape": [null, 16, 64, 96], "dtype": "float32", "keras_history": ["activation_6", 0, 0]}}]], "kwargs": {}}]}, {"class_name": "Activation", "config": {"name": "activation_8", "trainable": false, "dtype": {"module": "keras", "class_name": "DTypePolicy", "config": {"name": "float32"}, "registered_name": null}, "activation": "relu"}, "name": "activation_8", "inbound_nodes": [{"args": [{"class_name": "__keras_tensor__", "config": {"shape": [null, 16, 64, 96], "dtype": "float32", "keras_history": ["add_6", 0, 0]}}], "kwargs": {}}]}, {"class_name": "DepthwiseConv2D", "config": {"name": "depthwise_conv2d_9", "trainable": false, "dtype": {"module": "keras", "class_name": "DTypePolicy", "config": {"name": "float32"}, "registered_name": null}, "depth_multiplier": 1, "kernel_size": [5, 5], "strides": [1, 1], "padding": "same", "data_format": "channels_last", "dilation_rate": [1, 1], "activation": "linear", "use_bias": true, "depthwise_initializer": {"module": "keras.initializers", "class_name": "GlorotUniform", "config": {"seed": null}, "registered_name": null}, "bias_initializer": {"module": "keras.initializers", "class_name": "Zeros", "config": {}, "registered_name": null}, "depthwise_regularizer": null, "bias_regularizer": null, "activity_regularizer": null, "depthwise_constraint": null, "bias_constraint": null}, "name": "depthwise_conv2d_9", "inbound_nodes": [{"args": [{"class_name": "__keras_tensor__", "config": {"shape": [null, 16, 64, 96], "dtype": "float32", "keras_history": ["activation_8", 0, 0]}}], "kwargs": {}}]}, {"class_name": "Conv2D", "config": {"name": "conv2d_12", "trainable": false, "dtype": {"module": "keras", "class_name": "DTypePolicy", "config": {"name": "float32"}, "registered_name": null}, "filters": 24, "kernel_size": [1, 1], "strides": [1, 1], "padding": "same", "data_format": "channels_last", "dilation_rate": [1, 1], "groups": 1, "activation": "linear", "use_bias": true, "kernel_initializer": {"module": "keras.initializers", "class_name": "GlorotUniform", "config": {"seed": null}, "registered_name": null}, "bias_initializer": {"module": "keras.initializers", "class_name": "Zeros", "config": {}, "registered_name": null}, "kernel_regularizer": null, "bias_regularizer": null, "activity_regularizer": null, "kernel_constraint": null, "bias_constraint": null}, "name": "conv2d_12", "inbound_nodes": [{"args": [{"class_name": "__keras_tensor__", "config": {"shape": [null, 16, 64, 96], "dtype": "float32", "keras_history": ["depthwise_conv2d_9", 0, 0]}}], "kwargs": {}}]}, {"class_name": "Activation", "config": {"name": "activation_9", "trainable": false, "dtype": {"module": "keras", "class_name": "DTypePolicy", "config": {"name": "float32"}, "registered_name": null}, "activation": "relu"}, "name": "activation_9", "inbound_nodes": [{"args": [{"class_name": "__keras_tensor__", "config": {"shape": [null, 16, 64, 24], "dtype": "float32", "keras_history": ["conv2d_12", 0, 0]}}], "kwargs": {}}]}, {"class_name": "DepthwiseConv2D", "config": {"name": "depthwise_conv2d_10", "trainable": false, "dtype": {"module": "keras", "class_name": "DTypePolicy", "config": {"name": "float32"}, "registered_name": null}, "depth_multiplier": 1, "kernel_size": [5, 5], "strides": [1, 1], "padding": "same", "data_format": "channels_last", "dilation_rate": [1, 1], "activation": "linear", "use_bias": true, "depthwise_initializer": {"module": "keras.initializers", "class_name": "GlorotUniform", "config": {"seed": null}, "registered_name": null}, "bias_initializer": {"module": "keras.initializers", "class_name": "Zeros", "config": {}, "registered_name": null}, "depthwise_regularizer": null, "bias_regularizer": null, "activity_regularizer": null, "depthwise_constraint": null, "bias_constraint": null}, "name": "depthwise_conv2d_10", "inbound_nodes": [{"args": [{"class_name": "__keras_tensor__", "config": {"shape": [null, 16, 64, 24], "dtype": "float32", "keras_history": ["activation_9", 0, 0]}}], "kwargs": {}}]}, {"class_name": "Conv2D", "config": {"name": "conv2d_13", "trainable": false, "dtype": {"module": "keras", "class_name": "DTypePolicy", "config": {"name": "float32"}, "registered_name": null}, "filters": 96, "kernel_size": [1, 1], "strides": [1, 1], "padding": "same", "data_format": "channels_last", "dilation_rate": [1, 1], "groups": 1, "activation": "linear", "use_bias": true, "kernel_initializer": {"module": "keras.initializers", "class_name": "GlorotUniform", "config": {"seed": null}, "registered_name": null}, "bias_initializer": {"module": "keras.initializers", "class_name": "Zeros", "config": {}, "registered_name": null}, "kernel_regularizer": null, "bias_regularizer": null, "activity_regularizer": null, "kernel_constraint": null, "bias_constraint": null}, "name": "conv2d_13", "inbound_nodes": [{"args": [{"class_name": "__keras_tensor__", "config": {"shape": [null, 16, 64, 24], "dtype": "float32", "keras_history": ["depthwise_conv2d_10", 0, 0]}}], "kwargs": {}}]}, {"class_name": "Add", "config": {"name": "add_7", "trainable": false, "dtype": {"module": "keras", "class_name": "DTypePolicy", "config": {"name": "float32"}, "registered_name": null}}, "name": "add_7", "inbound_nodes": [{"args": [[{"class_name": "__keras_tensor__", "config": {"shape": [null, 16, 64, 96], "dtype": "float32", "keras_history": ["conv2d_13", 0, 0]}}, {"class_name": "__keras_tensor__", "config": {"shape": [null, 16, 64, 96], "dtype": "float32", "keras_history": ["activation_8", 0, 0]}}]], "kwargs": {}}]}, {"class_name": "Activation", "config": {"name": "activation_10", "trainable": false, "dtype": {"module": "keras", "class_name": "DTypePolicy", "config": {"name": "float32"}, "registered_name": null}, "activation": "relu"}, "name": "activation_10", "inbound_nodes": [{"args": [{"class_name": "__keras_tensor__", "config": {"shape": [null, 16, 64, 96], "dtype": "float32", "keras_history": ["add_7", 0, 0]}}], "kwargs": {}}]}, {"class_name": "DepthwiseConv2D", "config": {"name": "depthwise_conv2d_11", "trainable": false, "dtype": {"module": "keras", "class_name": "DTypePolicy", "config": {"name": "float32"}, "registered_name": null}, "depth_multiplier": 1, "kernel_size": [5, 5], "strides": [2, 2], "padding": "same", "data_format": "channels_last", "dilation_rate": [1, 1], "activation": "linear", "use_bias": true, "depthwise_initializer": {"module": "keras.initializers", "class_name": "GlorotUniform", "config": {"seed": null}, "registered_name": null}, "bias_initializer": {"module": "keras.initializers", "class_name": "Zeros", "config": {}, "registered_name": null}, "depthwise_regularizer": null, "bias_regularizer": null, "activity_regularizer": null, "depthwise_constraint": null, "bias_constraint": null}, "name": "depthwise_conv2d_11", "inbound_nodes": [{"args": [{"class_name": "__keras_tensor__", "config": {"shape": [null, 16, 64, 96], "dtype": "float32", "keras_history": ["activation_10", 0, 0]}}], "kwargs": {}}]}, {"class_name": "Conv2D", "config": {"name": "conv2d_14", "trainable": false, "dtype": {"module": "keras", "class_name": "DTypePolicy", "config": {"name": "float32"}, "registered_name": null}, "filters": 24, "kernel_size": [1, 1], "strides": [1, 1], "padding": "same", "data_format": "channels_last", "dilation_rate": [1, 1], "groups": 1, "activation": "linear", "use_bias": true, "kernel_initializer": {"module": "keras.initializers", "class_name": "GlorotUniform", "config": {"seed": null}, "registered_name": null}, "bias_initializer": {"module": "keras.initializers", "class_name": "Zeros", "config": {}, "registered_name": null}, "kernel_regularizer": null, "bias_regularizer": null, "activity_regularizer": null, "kernel_constraint": null, "bias_constraint": null}, "name": "conv2d_14", "inbound_nodes": [{"args": [{"class_name": "__keras_tensor__", "config": {"shape": [null, 8, 32, 96], "dtype": "float32", "keras_history": ["depthwise_conv2d_11", 0, 0]}}], "kwargs": {}}]}, {"class_name": "Activation", "config": {"name": "activation_11", "trainable": false, "dtype": {"module": "keras", "class_name": "DTypePolicy", "config": {"name": "float32"}, "registered_name": null}, "activation": "relu"}, "name": "activation_11", "inbound_nodes": [{"args": [{"class_name": "__keras_tensor__", "config": {"shape": [null, 8, 32, 24], "dtype": "float32", "keras_history": ["conv2d_14", 0, 0]}}], "kwargs": {}}]}, {"class_name": "DepthwiseConv2D", "config": {"name": "depthwise_conv2d_12", "trainable": false, "dtype": {"module": "keras", "class_name": "DTypePolicy", "config": {"name": "float32"}, "registered_name": null}, "depth_multiplier": 1, "kernel_size": [5, 5], "strides": [1, 1], "padding": "same", "data_format": "channels_last", "dilation_rate": [1, 1], "activation": "linear", "use_bias": true, "depthwise_initializer": {"module": "keras.initializers", "class_name": "GlorotUniform", "config": {"seed": null}, "registered_name": null}, "bias_initializer": {"module": "keras.initializers", "class_name": "Zeros", "config": {}, "registered_name": null}, "depthwise_regularizer": null, "bias_regularizer": null, "activity_regularizer": null, "depthwise_constraint": null, "bias_constraint": null}, "name": "depthwise_conv2d_12", "inbound_nodes": [{"args": [{"class_name": "__keras_tensor__", "config": {"shape": [null, 8, 32, 24], "dtype": "float32", "keras_history": ["activation_11", 0, 0]}}], "kwargs": {}}]}, {"class_name": "MaxPooling2D", "config": {"name": "max_pooling2d_2", "trainable": false, "dtype": {"module": "keras", "class_name": "DTypePolicy", "config": {"name": "float32"}, "registered_name": null}, "pool_size": [2, 2], "padding": "valid", "strides": [2, 2], "data_format": "channels_last"}, "name": "max_pooling2d_2", "inbound_nodes": [{"args": [{"class_name": "__keras_tensor__", "config": {"shape": [null, 16, 64, 96], "dtype": "float32", "keras_history": ["activation_10", 0, 0]}}], "kwargs": {}}]}, {"class_name": "Conv2D", "config": {"name": "conv2d_15", "trainable": false, "dtype": {"module": "keras", "class_name": "DTypePolicy", "config": {"name": "float32"}, "registered_name": null}, "filters": 96, "kernel_size": [1, 1], "strides": [1, 1], "padding": "same", "data_format": "channels_last", "dilation_rate": [1, 1], "groups": 1, "activation": "linear", "use_bias": true, "kernel_initializer": {"module": "keras.initializers", "class_name": "GlorotUniform", "config": {"seed": null}, "registered_name": null}, "bias_initializer": {"module": "keras.initializers", "class_name": "Zeros", "config": {}, "registered_name": null}, "kernel_regularizer": null, "bias_regularizer": null, "activity_regularizer": null, "kernel_constraint": null, "bias_constraint": null}, "name": "conv2d_15", "inbound_nodes": [{"args": [{"class_name": "__keras_tensor__", "config": {"shape": [null, 8, 32, 24], "dtype": "float32", "keras_history": ["depthwise_conv2d_12", 0, 0]}}], "kwargs": {}}]}, {"class_name": "Conv2D", "config": {"name": "conv2d_16", "trainable": false, "dtype": {"module": "keras", "class_name": "DTypePolicy", "config": {"name": "float32"}, "registered_name": null}, "filters": 96, "kernel_size": [1, 1], "strides": [1, 1], "padding": "same", "data_format": "channels_last", "dilation_rate": [1, 1], "groups": 1, "activation": "linear", "use_bias": true, "kernel_initializer": {"module": "keras.initializers", "class_name": "GlorotUniform", "config": {"seed": null}, "registered_name": null}, "bias_initializer": {"module": "keras.initializers", "class_name": "Zeros", "config": {}, "registered_name": null}, "kernel_regularizer": null, "bias_regularizer": null, "activity_regularizer": null, "kernel_constraint": null, "bias_constraint": null}, "name": "conv2d_16", "inbound_nodes": [{"args": [{"class_name": "__keras_tensor__", "config": {"shape": [null, 8, 32, 96], "dtype": "float32", "keras_history": ["max_pooling2d_2", 0, 0]}}], "kwargs": {}}]}, {"class_name": "Add", "config": {"name": "add_8", "trainable": false, "dtype": {"module": "keras", "class_name": "DTypePolicy", "config": {"name": "float32"}, "registered_name": null}}, "name": "add_8", "inbound_nodes": [{"args": [[{"class_name": "__keras_tensor__", "config": {"shape": [null, 8, 32, 96], "dtype": "float32", "keras_history": ["conv2d_15", 0, 0]}}, {"class_name": "__keras_tensor__", "config": {"shape": [null, 8, 32, 96], "dtype": "float32", "keras_history": ["conv2d_16", 0, 0]}}]], "kwargs": {}}]}, {"class_name": "Activation", "config": {"name": "activation_12", "trainable": false, "dtype": {"module": "keras", "class_name": "DTypePolicy", "config": {"name": "float32"}, "registered_name": null}, "activation": "relu"}, "name": "activation_12", "inbound_nodes": [{"args": [{"class_name": "__keras_tensor__", "config": {"shape": [null, 8, 32, 96], "dtype": "float32", "keras_history": ["add_8", 0, 0]}}], "kwargs": {}}]}, {"class_name": "DepthwiseConv2D", "config": {"name": "depthwise_conv2d_13", "trainable": false, "dtype": {"module": "keras", "class_name": "DTypePolicy", "config": {"name": "float32"}, "registered_name": null}, "depth_multiplier": 1, "kernel_size": [5, 5], "strides": [1, 1], "padding": "same", "data_format": "channels_last", "dilation_rate": [1, 1], "activation": "linear", "use_bias": true, "depthwise_initializer": {"module": "keras.initializers", "class_name": "GlorotUniform", "config": {"seed": null}, "registered_name": null}, "bias_initializer": {"module": "keras.initializers", "class_name": "Zeros", "config": {}, "registered_name": null}, "depthwise_regularizer": null, "bias_regularizer": null, "activity_regularizer": null, "depthwise_constraint": null, "bias_constraint": null}, "name": "depthwise_conv2d_13", "inbound_nodes": [{"args": [{"class_name": "__keras_tensor__", "config": {"shape": [null, 8, 32, 96], "dtype": "float32", "keras_history": ["activation_12", 0, 0]}}], "kwargs": {}}]}, {"class_name": "Conv2D", "config": {"name": "conv2d_17", "trainable": false, "dtype": {"module": "keras", "class_name": "DTypePolicy", "config": {"name": "float32"}, "registered_name": null}, "filters": 24, "kernel_size": [1, 1], "strides": [1, 1], "padding": "same", "data_format": "channels_last", "dilation_rate": [1, 1], "groups": 1, "activation": "linear", "use_bias": true, "kernel_initializer": {"module": "keras.initializers", "class_name": "GlorotUniform", "config": {"seed": null}, "registered_name": null}, "bias_initializer": {"module": "keras.initializers", "class_name": "Zeros", "config": {}, "registered_name": null}, "kernel_regularizer": null, "bias_regularizer": null, "activity_regularizer": null, "kernel_constraint": null, "bias_constraint": null}, "name": "conv2d_17", "inbound_nodes": [{"args": [{"class_name": "__keras_tensor__", "config": {"shape": [null, 8, 32, 96], "dtype": "float32", "keras_history": ["depthwise_conv2d_13", 0, 0]}}], "kwargs": {}}]}, {"class_name": "Activation", "config": {"name": "activation_13", "trainable": false, "dtype": {"module": "keras", "class_name": "DTypePolicy", "config": {"name": "float32"}, "registered_name": null}, "activation": "relu"}, "name": "activation_13", "inbound_nodes": [{"args": [{"class_name": "__keras_tensor__", "config": {"shape": [null, 8, 32, 24], "dtype": "float32", "keras_history": ["conv2d_17", 0, 0]}}], "kwargs": {}}]}, {"class_name": "DepthwiseConv2D", "config": {"name": "depthwise_conv2d_14", "trainable": false, "dtype": {"module": "keras", "class_name": "DTypePolicy", "config": {"name": "float32"}, "registered_name": null}, "depth_multiplier": 1, "kernel_size": [5, 5], "strides": [1, 1], "padding": "same", "data_format": "channels_last", "dilation_rate": [1, 1], "activation": "linear", "use_bias": true, "depthwise_initializer": {"module": "keras.initializers", "class_name": "GlorotUniform", "config": {"seed": null}, "registered_name": null}, "bias_initializer": {"module": "keras.initializers", "class_name": "Zeros", "config": {}, "registered_name": null}, "depthwise_regularizer": null, "bias_regularizer": null, "activity_regularizer": null, "depthwise_constraint": null, "bias_constraint": null}, "name": "depthwise_conv2d_14", "inbound_nodes": [{"args": [{"class_name": "__keras_tensor__", "config": {"shape": [null, 8, 32, 24], "dtype": "float32", "keras_history": ["activation_13", 0, 0]}}], "kwargs": {}}]}, {"class_name": "Conv2D", "config": {"name": "conv2d_18", "trainable": false, "dtype": {"module": "keras", "class_name": "DTypePolicy", "config": {"name": "float32"}, "registered_name": null}, "filters": 96, "kernel_size": [1, 1], "strides": [1, 1], "padding": "same", "data_format": "channels_last", "dilation_rate": [1, 1], "groups": 1, "activation": "linear", "use_bias": true, "kernel_initializer": {"module": "keras.initializers", "class_name": "GlorotUniform", "config": {"seed": null}, "registered_name": null}, "bias_initializer": {"module": "keras.initializers", "class_name": "Zeros", "config": {}, "registered_name": null}, "kernel_regularizer": null, "bias_regularizer": null, "activity_regularizer": null, "kernel_constraint": null, "bias_constraint": null}, "name": "conv2d_18", "inbound_nodes": [{"args": [{"class_name": "__keras_tensor__", "config": {"shape": [null, 8, 32, 24], "dtype": "float32", "keras_history": ["depthwise_conv2d_14", 0, 0]}}], "kwargs": {}}]}, {"class_name": "Add", "config": {"name": "add_9", "trainable": false, "dtype": {"module": "keras", "class_name": "DTypePolicy", "config": {"name": "float32"}, "registered_name": null}}, "name": "add_9", "inbound_nodes": [{"args": [[{"class_name": "__keras_tensor__", "config": {"shape": [null, 8, 32, 96], "dtype": "float32", "keras_history": ["conv2d_18", 0, 0]}}, {"class_name": "__keras_tensor__", "config": {"shape": [null, 8, 32, 96], "dtype": "float32", "keras_history": ["activation_12", 0, 0]}}]], "kwargs": {}}]}, {"class_name": "Activation", "config": {"name": "activation_14", "trainable": false, "dtype": {"module": "keras", "class_name": "DTypePolicy", "config": {"name": "float32"}, "registered_name": null}, "activation": "relu"}, "name": "activation_14", "inbound_nodes": [{"args": [{"class_name": "__keras_tensor__", "config": {"shape": [null, 8, 32, 96], "dtype": "float32", "keras_history": ["add_9", 0, 0]}}], "kwargs": {}}]}, {"class_name": "DepthwiseConv2D", "config": {"name": "depthwise_conv2d_15", "trainable": false, "dtype": {"module": "keras", "class_name": "DTypePolicy", "config": {"name": "float32"}, "registered_name": null}, "depth_multiplier": 1, "kernel_size": [5, 5], "strides": [1, 1], "padding": "same", "data_format": "channels_last", "dilation_rate": [1, 1], "activation": "linear", "use_bias": true, "depthwise_initializer": {"module": "keras.initializers", "class_name": "GlorotUniform", "config": {"seed": null}, "registered_name": null}, "bias_initializer": {"module": "keras.initializers", "class_name": "Zeros", "config": {}, "registered_name": null}, "depthwise_regularizer": null, "bias_regularizer": null, "activity_regularizer": null, "depthwise_constraint": null, "bias_constraint": null}, "name": "depthwise_conv2d_15", "inbound_nodes": [{"args": [{"class_name": "__keras_tensor__", "config": {"shape": [null, 8, 32, 96], "dtype": "float32", "keras_history": ["activation_14", 0, 0]}}], "kwargs": {}}]}, {"class_name": "Conv2D", "config": {"name": "conv2d_19", "trainable": false, "dtype": {"module": "keras", "class_name": "DTypePolicy", "config": {"name": "float32"}, "registered_name": null}, "filters": 24, "kernel_size": [1, 1], "strides": [1, 1], "padding": "same", "data_format": "channels_last", "dilation_rate": [1, 1], "groups": 1, "activation": "linear", "use_bias": true, "kernel_initializer": {"module": "keras.initializers", "class_name": "GlorotUniform", "config": {"seed": null}, "registered_name": null}, "bias_initializer": {"module": "keras.initializers", "class_name": "Zeros", "config": {}, "registered_name": null}, "kernel_regularizer": null, "bias_regularizer": null, "activity_regularizer": null, "kernel_constraint": null, "bias_constraint": null}, "name": "conv2d_19", "inbound_nodes": [{"args": [{"class_name": "__keras_tensor__", "config": {"shape": [null, 8, 32, 96], "dtype": "float32", "keras_history": ["depthwise_conv2d_15", 0, 0]}}], "kwargs": {}}]}, {"class_name": "Activation", "config": {"name": "activation_15", "trainable": false, "dtype": {"module": "keras", "class_name": "DTypePolicy", "config": {"name": "float32"}, "registered_name": null}, "activation": "relu"}, "name": "activation_15", "inbound_nodes": [{"args": [{"class_name": "__keras_tensor__", "config": {"shape": [null, 8, 32, 24], "dtype": "float32", "keras_history": ["conv2d_19", 0, 0]}}], "kwargs": {}}]}, {"class_name": "DepthwiseConv2D", "config": {"name": "depthwise_conv2d_16", "trainable": false, "dtype": {"module": "keras", "class_name": "DTypePolicy", "config": {"name": "float32"}, "registered_name": null}, "depth_multiplier": 1, "kernel_size": [5, 5], "strides": [1, 1], "padding": "same", "data_format": "channels_last", "dilation_rate": [1, 1], "activation": "linear", "use_bias": true, "depthwise_initializer": {"module": "keras.initializers", "class_name": "GlorotUniform", "config": {"seed": null}, "registered_name": null}, "bias_initializer": {"module": "keras.initializers", "class_name": "Zeros", "config": {}, "registered_name": null}, "depthwise_regularizer": null, "bias_regularizer": null, "activity_regularizer": null, "depthwise_constraint": null, "bias_constraint": null}, "name": "depthwise_conv2d_16", "inbound_nodes": [{"args": [{"class_name": "__keras_tensor__", "config": {"shape": [null, 8, 32, 24], "dtype": "float32", "keras_history": ["activation_15", 0, 0]}}], "kwargs": {}}]}, {"class_name": "Conv2D", "config": {"name": "conv2d_20", "trainable": false, "dtype": {"module": "keras", "class_name": "DTypePolicy", "config": {"name": "float32"}, "registered_name": null}, "filters": 96, "kernel_size": [1, 1], "strides": [1, 1], "padding": "same", "data_format": "channels_last", "dilation_rate": [1, 1], "groups": 1, "activation": "linear", "use_bias": true, "kernel_initializer": {"module": "keras.initializers", "class_name": "GlorotUniform", "config": {"seed": null}, "registered_name": null}, "bias_initializer": {"module": "keras.initializers", "class_name": "Zeros", "config": {}, "registered_name": null}, "kernel_regularizer": null, "bias_regularizer": null, "activity_regularizer": null, "kernel_constraint": null, "bias_constraint": null}, "name": "conv2d_20", "inbound_nodes": [{"args": [{"class_name": "__keras_tensor__", "config": {"shape": [null, 8, 32, 24], "dtype": "float32", "keras_history": ["depthwise_conv2d_16", 0, 0]}}], "kwargs": {}}]}, {"class_name": "Add", "config": {"name": "add_10", "trainable": false, "dtype": {"module": "keras", "class_name": "DTypePolicy", "config": {"name": "float32"}, "registered_name": null}}, "name": "add_10", "inbound_nodes": [{"args": [[{"class_name": "__keras_tensor__", "config": {"shape": [null, 8, 32, 96], "dtype": "float32", "keras_history": ["conv2d_20", 0, 0]}}, {"class_name": "__keras_tensor__", "config": {"shape": [null, 8, 32, 96], "dtype": "float32", "keras_history": ["activation_14", 0, 0]}}]], "kwargs": {}}]}, {"class_name": "Activation", "config": {"name": "activation_16", "trainable": false, "dtype": {"module": "keras", "class_name": "DTypePolicy", "config": {"name": "float32"}, "registered_name": null}, "activation": "relu"}, "name": "activation_16", "inbound_nodes": [{"args": [{"class_name": "__keras_tensor__", "config": {"shape": [null, 8, 32, 96], "dtype": "float32", "keras_history": ["add_10", 0, 0]}}], "kwargs": {}}]}, {"class_name": "Conv2D", "config": {"name": "conv2d_21", "trainable": false, "dtype": {"module": "keras", "class_name": "DTypePolicy", "config": {"name": "float32"}, "registered_name": null}, "filters": 64, "kernel_size": [3, 3], "strides": [2, 2], "padding": "same", "data_format": "channels_last", "dilation_rate": [1, 1], "groups": 1, "activation": "relu", "use_bias": true, "kernel_initializer": {"module": "keras.initializers", "class_name": "GlorotUniform", "config": {"seed": null}, "registered_name": null}, "bias_initializer": {"module": "keras.initializers", "class_name": "Zeros", "config": {}, "registered_name": null}, "kernel_regularizer": null, "bias_regularizer": null, "activity_regularizer": null, "kernel_constraint": null, "bias_constraint": null}, "name": "conv2d_21", "inbound_nodes": [{"args": [{"class_name": "__keras_tensor__", "config": {"shape": [null, 8, 32, 96], "dtype": "float32", "keras_history": ["activation_16", 0, 0]}}], "kwargs": {}}]}, {"class_name": "BatchNormalization", "config": {"name": "batch_normalization", "trainable": false, "dtype": {"module": "keras", "class_name": "DTypePolicy", "config": {"name": "float32"}, "registered_name": null}, "axis": -1, "momentum": 0.99, "epsilon": 0.001, "center": true, "scale": true, "beta_initializer": {"module": "keras.initializers", "class_name": "Zeros", "config": {}, "registered_name": null}, "gamma_initializer": {"module": "keras.initializers", "class_name": "Ones", "config": {}, "registered_name": null}, "moving_mean_initializer": {"module": "keras.initializers", "class_name": "Zeros", "config": {}, "registered_name": null}, "moving_variance_initializer": {"module": "keras.initializers", "class_name": "Ones", "config": {}, "registered_name": null}, "beta_regularizer": null, "gamma_regularizer": null, "beta_constraint": null, "gamma_constraint": null, "synchronized": false}, "name": "batch_normalization", "inbound_nodes": [{"args": [{"class_name": "__keras_tensor__", "config": {"shape": [null, 4, 16, 64], "dtype": "float32", "keras_history": ["conv2d_21", 0, 0]}}], "kwargs": {"mask": null}}]}, {"class_name": "Conv2D", "config": {"name": "conv2d_22", "trainable": false, "dtype": {"module": "keras", "class_name": "DTypePolicy", "config": {"name": "float32"}, "registered_name": null}, "filters": 32, "kernel_size": [3, 3], "strides": [2, 2], "padding": "same", "data_format": "channels_last", "dilation_rate": [1, 1], "groups": 1, "activation": "relu", "use_bias": true, "kernel_initializer": {"module": "keras.initializers", "class_name": "GlorotUniform", "config": {"seed": null}, "registered_name": null}, "bias_initializer": {"module": "keras.initializers", "class_name": "Zeros", "config": {}, "registered_name": null}, "kernel_regularizer": null, "bias_regularizer": null, "activity_regularizer": null, "kernel_constraint": null, "bias_constraint": null}, "name": "conv2d_22", "inbound_nodes": [{"args": [{"class_name": "__keras_tensor__", "config": {"shape": [null, 4, 16, 64], "dtype": "float32", "keras_history": ["batch_normalization", 0, 0]}}], "kwargs": {}}]}, {"class_name": "BatchNormalization", "config": {"name": "batch_normalization_1", "trainable": false, "dtype": {"module": "keras", "class_name": "DTypePolicy", "config": {"name": "float32"}, "registered_name": null}, "axis": -1, "momentum": 0.99, "epsilon": 0.001, "center": true, "scale": true, "beta_initializer": {"module": "keras.initializers", "class_name": "Zeros", "config": {}, "registered_name": null}, "gamma_initializer": {"module": "keras.initializers", "class_name": "Ones", "config": {}, "registered_name": null}, "moving_mean_initializer": {"module": "keras.initializers", "class_name": "Zeros", "config": {}, "registered_name": null}, "moving_variance_initializer": {"module": "keras.initializers", "class_name": "Ones", "config": {}, "registered_name": null}, "beta_regularizer": null, "gamma_regularizer": null, "beta_constraint": null, "gamma_constraint": null, "synchronized": false}, "name": "batch_normalization_1", "inbound_nodes": [{"args": [{"class_name": "__keras_tensor__", "config": {"shape": [null, 2, 8, 32], "dtype": "float32", "keras_history": ["conv2d_22", 0, 0]}}], "kwargs": {"mask": null}}]}, {"class_name": "Flatten", "config": {"name": "embedding", "trainable": false, "dtype": {"module": "keras", "class_name": "DTypePolicy", "config": {"name": "float32"}, "registered_name": null}, "data_format": "channels_last"}, "name": "embedding", "inbound_nodes": [{"args": [{"class_name": "__keras_tensor__", "config": {"shape": [null, 2, 8, 32], "dtype": "float32", "keras_history": ["batch_normalization_1", 0, 0]}}], "kwargs": {}}]}], "input_layers": [["input_layer", 0, 0]], "output_layers": [["embedding", 0, 0]]}, "name": "cnn_encoder", "inbound_nodes": [{"args": [{"class_name": "__keras_tensor__", "config": {"shape": [null, 128, 512, 3], "dtype": "float32", "keras_history": ["image", 0, 0]}}], "kwargs": {"training": false, "mask": null}}]}, {"class_name": "InputLayer", "config": {"batch_shape": [null, 3], "dtype": "float32", "sparse": false, "ragged": false, "name": "head_vector"}, "name": "head_vector", "inbound_nodes": []}, {"class_name": "InputLayer", "config": {"batch_shape": [null, 3], "dtype": "float32", "sparse": false, "ragged": false, "name": "face_origin_3d"}, "name": "face_origin_3d", "inbound_nodes": []}, {"class_name": "Functional", "config": {"name": "gaze_mlp", "trainable": true, "layers": [{"class_name": "InputLayer", "config": {"batch_shape": [null, 512], "dtype": "float32", "sparse": false, "ragged": false, "name": "encoder_input"}, "name": "encoder_input", "inbound_nodes": []}, {"class_name": "Flatten", "config": {"name": "flattened_output", "trainable": true, "dtype": {"module": "keras", "class_name": "DTypePolicy", "config": {"name": "float32"}, "registered_name": null}, "data_format": "channels_last"}, "name": "flattened_output", "inbound_nodes": [{"args": [{"class_name": "__keras_tensor__", "config": {"shape": [null, 512], "dtype": "float32", "keras_history": ["encoder_input", 0, 0]}}], "kwargs": {}}]}, {"class_name": "InputLayer", "config": {"batch_shape": [null, 3], "dtype": "float32", "sparse": false, "ragged": false, "name": "head_vector"}, "name": "head_vector", "inbound_nodes": []}, {"class_name": "InputLayer", "config": {"batch_shape": [null, 3], "dtype": "float32", "sparse": false, "ragged": false, "name": "face_origin_3d"}, "name": "face_origin_3d", "inbound_nodes": []}, {"class_name": "Concatenate", "config": {"name": "feature_concat", "trainable": true, "dtype": {"module": "keras", "class_name": "DTypePolicy", "config": {"name": "float32"}, "registered_name": null}, "axis": -1}, "name": "feature_concat", "inbound_nodes": [{"args": [[{"class_name": "__keras_tensor__", "config": {"shape": [null, 512], "dtype": "float32", "keras_history": ["flattened_output", 0, 0]}}, {"class_name": "__keras_tensor__", "config": {"shape": [null, 3], "dtype": "float32", "keras_history": ["head_vector", 0, 0]}}, {"class_name": "__keras_tensor__", "config": {"shape": [null, 3], "dtype": "float32", "keras_history": ["face_origin_3d", 0, 0]}}]], "kwargs": {}}]}, {"class_name": "Dense", "config": {"name": "dense", "trainable": true, "dtype": {"module": "keras", "class_name": "DTypePolicy", "config": {"name": "float32"}, "registered_name": null}, "units": 16, "activation": "relu", "use_bias": true, "kernel_initializer": {"module": "keras.initializers", "class_name": "GlorotUniform", "config": {"seed": null}, "registered_name": null}, "bias_initializer": {"module": "keras.initializers", "class_name": "Zeros", "config": {}, "registered_name": null}, "kernel_regularizer": null, "bias_regularizer": null, "kernel_constraint": null, "bias_constraint": null}, "name": "dense", "inbound_nodes": [{"args": [{"class_name": "__keras_tensor__", "config": {"shape": [null, 518], "dtype": "float32", "keras_history": ["feature_concat", 0, 0]}}], "kwargs": {}}]}, {"class_name": "Dense", "config": {"name": "dense_1", "trainable": true, "dtype": {"module": "keras", "class_name": "DTypePolicy", "config": {"name": "float32"}, "registered_name": null}, "units": 16, "activation": "relu", "use_bias": true, "kernel_initializer": {"module": "keras.initializers", "class_name": "GlorotUniform", "config": {"seed": null}, "registered_name": null}, "bias_initializer": {"module": "keras.initializers", "class_name": "Zeros", "config": {}, "registered_name": null}, "kernel_regularizer": null, "bias_regularizer": null, "kernel_constraint": null, "bias_constraint": null}, "name": "dense_1", "inbound_nodes": [{"args": [{"class_name": "__keras_tensor__", "config": {"shape": [null, 16], "dtype": "float32", "keras_history": ["dense", 0, 0]}}], "kwargs": {}}]}, {"class_name": "Dense", "config": {"name": "gaze_output", "trainable": true, "dtype": {"module": "keras", "class_name": "DTypePolicy", "config": {"name": "float32"}, "registered_name": null}, "units": 2, "activation": "linear", "use_bias": true, "kernel_initializer": {"module": "keras.initializers", "class_name": "GlorotUniform", "config": {"seed": null}, "registered_name": null}, "bias_initializer": {"module": "keras.initializers", "class_name": "Zeros", "config": {}, "registered_name": null}, "kernel_regularizer": null, "bias_regularizer": null, "kernel_constraint": null, "bias_constraint": null}, "name": "gaze_output", "inbound_nodes": [{"args": [{"class_name": "__keras_tensor__", "config": {"shape": [null, 16], "dtype": "float32", "keras_history": ["dense_1", 0, 0]}}], "kwargs": {}}]}], "input_layers": [["encoder_input", 0, 0], ["head_vector", 0, 0], ["face_origin_3d", 0, 0]], "output_layers": [["gaze_output", 0, 0]]}, "name": "gaze_mlp", "inbound_nodes": [{"args": [[{"class_name": "__keras_tensor__", "config": {"shape": [null, 512], "dtype": "float32", "keras_history": ["cnn_encoder", 0, 0]}}, {"class_name": "__keras_tensor__", "config": {"shape": [null, 3], "dtype": "float32", "keras_history": ["head_vector", 0, 0]}}, {"class_name": "__keras_tensor__", "config": {"shape": [null, 3], "dtype": "float32", "keras_history": ["face_origin_3d", 0, 0]}}]], "kwargs": {"training": false, "mask": [null, null, null]}}]}], "input_layers": [["image", 0, 0], ["head_vector", 0, 0], ["face_origin_3d", 0, 0]], "output_layers": [["gaze_mlp", 1, 0]]}}}, "weightsManifest": [{"paths": ["group1-shard1of1.bin"], "weights": [{"name": "conv2d/kernel", "shape": [5, 5, 3, 24], "dtype": "float32"}, {"name": "conv2d/bias", "shape": [24], "dtype": "float32"}, {"name": "depthwise_conv2d/kernel", "shape": [5, 5, 24, 1], "dtype": "float32"}, {"name": "depthwise_conv2d/bias", "shape": [24], "dtype": "float32"}, {"name": "conv2d_1/kernel", "shape": [1, 1, 24, 24], "dtype": "float32"}, {"name": "conv2d_1/bias", "shape": [24], "dtype": "float32"}, {"name": "depthwise_conv2d_1/kernel", "shape": [5, 5, 24, 1], "dtype": "float32"}, {"name": "depthwise_conv2d_1/bias", "shape": [24], "dtype": "float32"}, {"name": "conv2d_2/kernel", "shape": [1, 1, 24, 24], "dtype": "float32"}, {"name": "conv2d_2/bias", "shape": [24], "dtype": "float32"}, {"name": "depthwise_conv2d_2/kernel", "shape": [5, 5, 24, 1], "dtype": "float32"}, {"name": "depthwise_conv2d_2/bias", "shape": [24], "dtype": "float32"}, {"name": "conv2d_3/kernel", "shape": [1, 1, 24, 48], "dtype": "float32"}, {"name": "conv2d_3/bias", "shape": [48], "dtype": "float32"}, {"name": "conv2d_4/kernel", "shape": [1, 1, 24, 48], "dtype": "float32"}, {"name": "conv2d_4/bias", "shape": [48], "dtype": "float32"}, {"name": "depthwise_conv2d_3/kernel", "shape": [5, 5, 48, 1], "dtype": "float32"}, {"name": "depthwise_conv2d_3/bias", "shape": [48], "dtype": "float32"}, {"name": "conv2d_5/kernel", "shape": [1, 1, 48, 48], "dtype": "float32"}, {"name": "conv2d_5/bias", "shape": [48], "dtype": "float32"}, {"name": "depthwise_conv2d_4/kernel", "shape": [5, 5, 48, 1], "dtype": "float32"}, {"name": "depthwise_conv2d_4/bias", "shape": [48], "dtype": "float32"}, {"name": "conv2d_6/kernel", "shape": [1, 1, 48, 48], "dtype": "float32"}, {"name": "conv2d_6/bias", "shape": [48], "dtype": "float32"}, {"name": "depthwise_conv2d_5/kernel", "shape": [5, 5, 48, 1], "dtype": "float32"}, {"name": "depthwise_conv2d_5/bias", "shape": [48], "dtype": "float32"}, {"name": "conv2d_7/kernel", "shape": [1, 1, 48, 24], "dtype": "float32"}, {"name": "conv2d_7/bias", "shape": [24], "dtype": "float32"}, {"name": "depthwise_conv2d_6/kernel", "shape": [5, 5, 24, 1], "dtype": "float32"}, {"name": "depthwise_conv2d_6/bias", "shape": [24], "dtype": "float32"}, {"name": "conv2d_8/kernel", "shape": [1, 1, 24, 96], "dtype": "float32"}, {"name": "conv2d_8/bias", "shape": [96], "dtype": "float32"}, {"name": "conv2d_9/kernel", "shape": [1, 1, 48, 96], "dtype": "float32"}, {"name": "conv2d_9/bias", "shape": [96], "dtype": "float32"}, {"name": "depthwise_conv2d_7/kernel", "shape": [5, 5, 96, 1], "dtype": "float32"}, {"name": "depthwise_conv2d_7/bias", "shape": [96], "dtype": "float32"}, {"name": "conv2d_10/kernel", "shape": [1, 1, 96, 24], "dtype": "float32"}, {"name": "conv2d_10/bias", "shape": [24], "dtype": "float32"}, {"name": "depthwise_conv2d_8/kernel", "shape": [5, 5, 24, 1], "dtype": "float32"}, {"name": "depthwise_conv2d_8/bias", "shape": [24], "dtype": "float32"}, {"name": "conv2d_11/kernel", "shape": [1, 1, 24, 96], "dtype": "float32"}, {"name": "conv2d_11/bias", "shape": [96], "dtype": "float32"}, {"name": "depthwise_conv2d_9/kernel", "shape": [5, 5, 96, 1], "dtype": "float32"}, {"name": "depthwise_conv2d_9/bias", "shape": [96], "dtype": "float32"}, {"name": "conv2d_12/kernel", "shape": [1, 1, 96, 24], "dtype": "float32"}, {"name": "conv2d_12/bias", "shape": [24], "dtype": "float32"}, {"name": "depthwise_conv2d_10/kernel", "shape": [5, 5, 24, 1], "dtype": "float32"}, {"name": "depthwise_conv2d_10/bias", "shape": [24], "dtype": "float32"}, {"name": "conv2d_13/kernel", "shape": [1, 1, 24, 96], "dtype": "float32"}, {"name": "conv2d_13/bias", "shape": [96], "dtype": "float32"}, {"name": "depthwise_conv2d_11/kernel", "shape": [5, 5, 96, 1], "dtype": "float32"}, {"name": "depthwise_conv2d_11/bias", "shape": [96], "dtype": "float32"}, {"name": "conv2d_14/kernel", "shape": [1, 1, 96, 24], "dtype": "float32"}, {"name": "conv2d_14/bias", "shape": [24], "dtype": "float32"}, {"name": "depthwise_conv2d_12/kernel", "shape": [5, 5, 24, 1], "dtype": "float32"}, {"name": "depthwise_conv2d_12/bias", "shape": [24], "dtype": "float32"}, {"name": "conv2d_15/kernel", "shape": [1, 1, 24, 96], "dtype": "float32"}, {"name": "conv2d_15/bias", "shape": [96], "dtype": "float32"}, {"name": "conv2d_16/kernel", "shape": [1, 1, 96, 96], "dtype": "float32"}, {"name": "conv2d_16/bias", "shape": [96], "dtype": "float32"}, {"name": "depthwise_conv2d_13/kernel", "shape": [5, 5, 96, 1], "dtype": "float32"}, {"name": "depthwise_conv2d_13/bias", "shape": [96], "dtype": "float32"}, {"name": "conv2d_17/kernel", "shape": [1, 1, 96, 24], "dtype": "float32"}, {"name": "conv2d_17/bias", "shape": [24], "dtype": "float32"}, {"name": "depthwise_conv2d_14/kernel", "shape": [5, 5, 24, 1], "dtype": "float32"}, {"name": "depthwise_conv2d_14/bias", "shape": [24], "dtype": "float32"}, {"name": "conv2d_18/kernel", "shape": [1, 1, 24, 96], "dtype": "float32"}, {"name": "conv2d_18/bias", "shape": [96], "dtype": "float32"}, {"name": "depthwise_conv2d_15/kernel", "shape": [5, 5, 96, 1], "dtype": "float32"}, {"name": "depthwise_conv2d_15/bias", "shape": [96], "dtype": "float32"}, {"name": "conv2d_19/kernel", "shape": [1, 1, 96, 24], "dtype": "float32"}, {"name": "conv2d_19/bias", "shape": [24], "dtype": "float32"}, {"name": "depthwise_conv2d_16/kernel", "shape": [5, 5, 24, 1], "dtype": "float32"}, {"name": "depthwise_conv2d_16/bias", "shape": [24], "dtype": "float32"}, {"name": "conv2d_20/kernel", "shape": [1, 1, 24, 96], "dtype": "float32"}, {"name": "conv2d_20/bias", "shape": [96], "dtype": "float32"}, {"name": "conv2d_21/kernel", "shape": [3, 3, 96, 64], "dtype": "float32"}, {"name": "conv2d_21/bias", "shape": [64], "dtype": "float32"}, {"name": "batch_normalization/gamma", "shape": [64], "dtype": "float32"}, {"name": "batch_normalization/beta", "shape": [64], "dtype": "float32"}, {"name": "batch_normalization/moving_mean", "shape": [64], "dtype": "float32"}, {"name": "batch_normalization/moving_variance", "shape": [64], "dtype": "float32"}, {"name": "conv2d_22/kernel", "shape": [3, 3, 64, 32], "dtype": "float32"}, {"name": "conv2d_22/bias", "shape": [32], "dtype": "float32"}, {"name": "batch_normalization_1/gamma", "shape": [32], "dtype": "float32"}, {"name": "batch_normalization_1/beta", "shape": [32], "dtype": "float32"}, {"name": "batch_normalization_1/moving_mean", "shape": [32], "dtype": "float32"}, {"name": "batch_normalization_1/moving_variance", "shape": [32], "dtype": "float32"}, {"name": "dense/kernel", "shape": [518, 16], "dtype": "float32"}, {"name": "dense/bias", "shape": [16], "dtype": "float32"}, {"name": "dense_1/kernel", "shape": [16, 16], "dtype": "float32"}, {"name": "dense_1/bias", "shape": [16], "dtype": "float32"}, {"name": "gaze_output/kernel", "shape": [16, 2], "dtype": "float32"}, {"name": "gaze_output/bias", "shape": [2], "dtype": "float32"}]}]}